<?xml version="1.0" ?>
<net batch="1" name="frozen-model" version="5">
	<layers>
		<layer id="0" name="image" precision="FP32" type="Input">
			<output>
				<port id="0">
					<dim>1</dim>
					<dim>3</dim>
					<dim>368</dim>
					<dim>432</dim>
				</port>
			</output>
		</layer>
		<layer id="1" name="MobilenetV2/Conv/Conv2D" precision="FP32" type="Convolution">
			<data auto_pad="same_upper" dilations="1,1" group="1" kernel="3,3" output="48" pads_begin="0,0" pads_end="1,1" strides="2,2"/>
			<input>
				<port id="0">
					<dim>1</dim>
					<dim>3</dim>
					<dim>368</dim>
					<dim>432</dim>
				</port>
			</input>
			<output>
				<port id="3">
					<dim>1</dim>
					<dim>48</dim>
					<dim>184</dim>
					<dim>216</dim>
				</port>
			</output>
			<blobs>
				<weights offset="0" size="5184"/>
				<biases offset="5184" size="192"/>
			</blobs>
		</layer>
		<layer id="2" name="MobilenetV2/Conv/Relu6" precision="FP32" type="Clamp">
			<data max="6" min="0"/>
			<input>
				<port id="0">
					<dim>1</dim>
					<dim>48</dim>
					<dim>184</dim>
					<dim>216</dim>
				</port>
			</input>
			<output>
				<port id="1">
					<dim>1</dim>
					<dim>48</dim>
					<dim>184</dim>
					<dim>216</dim>
				</port>
			</output>
		</layer>
		<layer id="3" name="MobilenetV2/expanded_conv/depthwise/depthwise" precision="FP32" type="Convolution">
			<data auto_pad="same_upper" dilations="1,1" group="48" kernel="3,3" output="48" pads_begin="1,1" pads_end="1,1" strides="1,1"/>
			<input>
				<port id="0">
					<dim>1</dim>
					<dim>48</dim>
					<dim>184</dim>
					<dim>216</dim>
				</port>
			</input>
			<output>
				<port id="3">
					<dim>1</dim>
					<dim>48</dim>
					<dim>184</dim>
					<dim>216</dim>
				</port>
			</output>
			<blobs>
				<weights offset="5376" size="1728"/>
				<biases offset="7104" size="192"/>
			</blobs>
		</layer>
		<layer id="4" name="MobilenetV2/expanded_conv/depthwise/Relu6" precision="FP32" type="Clamp">
			<data max="6" min="0"/>
			<input>
				<port id="0">
					<dim>1</dim>
					<dim>48</dim>
					<dim>184</dim>
					<dim>216</dim>
				</port>
			</input>
			<output>
				<port id="1">
					<dim>1</dim>
					<dim>48</dim>
					<dim>184</dim>
					<dim>216</dim>
				</port>
			</output>
		</layer>
		<layer id="5" name="MobilenetV2/expanded_conv/project/Conv2D" precision="FP32" type="Convolution">
			<data auto_pad="same_upper" dilations="1,1" group="1" kernel="1,1" output="24" pads_begin="0,0" pads_end="0,0" strides="1,1"/>
			<input>
				<port id="0">
					<dim>1</dim>
					<dim>48</dim>
					<dim>184</dim>
					<dim>216</dim>
				</port>
			</input>
			<output>
				<port id="3">
					<dim>1</dim>
					<dim>24</dim>
					<dim>184</dim>
					<dim>216</dim>
				</port>
			</output>
			<blobs>
				<weights offset="7296" size="4608"/>
				<biases offset="11904" size="96"/>
			</blobs>
		</layer>
		<layer id="6" name="MobilenetV2/expanded_conv_1/expand/Conv2D" precision="FP32" type="Convolution">
			<data auto_pad="same_upper" dilations="1,1" group="1" kernel="1,1" output="144" pads_begin="0,0" pads_end="0,0" strides="1,1"/>
			<input>
				<port id="0">
					<dim>1</dim>
					<dim>24</dim>
					<dim>184</dim>
					<dim>216</dim>
				</port>
			</input>
			<output>
				<port id="3">
					<dim>1</dim>
					<dim>144</dim>
					<dim>184</dim>
					<dim>216</dim>
				</port>
			</output>
			<blobs>
				<weights offset="12000" size="13824"/>
				<biases offset="25824" size="576"/>
			</blobs>
		</layer>
		<layer id="7" name="MobilenetV2/expanded_conv_1/expand/Relu6" precision="FP32" type="Clamp">
			<data max="6" min="0"/>
			<input>
				<port id="0">
					<dim>1</dim>
					<dim>144</dim>
					<dim>184</dim>
					<dim>216</dim>
				</port>
			</input>
			<output>
				<port id="1">
					<dim>1</dim>
					<dim>144</dim>
					<dim>184</dim>
					<dim>216</dim>
				</port>
			</output>
		</layer>
		<layer id="8" name="MobilenetV2/expanded_conv_1/depthwise/depthwise" precision="FP32" type="Convolution">
			<data auto_pad="same_upper" dilations="1,1" group="144" kernel="3,3" output="144" pads_begin="0,0" pads_end="1,1" strides="2,2"/>
			<input>
				<port id="0">
					<dim>1</dim>
					<dim>144</dim>
					<dim>184</dim>
					<dim>216</dim>
				</port>
			</input>
			<output>
				<port id="3">
					<dim>1</dim>
					<dim>144</dim>
					<dim>92</dim>
					<dim>108</dim>
				</port>
			</output>
			<blobs>
				<weights offset="26400" size="5184"/>
				<biases offset="31584" size="576"/>
			</blobs>
		</layer>
		<layer id="9" name="MobilenetV2/expanded_conv_1/depthwise/Relu6" precision="FP32" type="Clamp">
			<data max="6" min="0"/>
			<input>
				<port id="0">
					<dim>1</dim>
					<dim>144</dim>
					<dim>92</dim>
					<dim>108</dim>
				</port>
			</input>
			<output>
				<port id="1">
					<dim>1</dim>
					<dim>144</dim>
					<dim>92</dim>
					<dim>108</dim>
				</port>
			</output>
		</layer>
		<layer id="10" name="MobilenetV2/expanded_conv_1/project/Conv2D" precision="FP32" type="Convolution">
			<data auto_pad="same_upper" dilations="1,1" group="1" kernel="1,1" output="32" pads_begin="0,0" pads_end="0,0" strides="1,1"/>
			<input>
				<port id="0">
					<dim>1</dim>
					<dim>144</dim>
					<dim>92</dim>
					<dim>108</dim>
				</port>
			</input>
			<output>
				<port id="3">
					<dim>1</dim>
					<dim>32</dim>
					<dim>92</dim>
					<dim>108</dim>
				</port>
			</output>
			<blobs>
				<weights offset="32160" size="18432"/>
				<biases offset="50592" size="128"/>
			</blobs>
		</layer>
		<layer id="11" name="MobilenetV2/expanded_conv_2/expand/Conv2D" precision="FP32" type="Convolution">
			<data auto_pad="same_upper" dilations="1,1" group="1" kernel="1,1" output="192" pads_begin="0,0" pads_end="0,0" strides="1,1"/>
			<input>
				<port id="0">
					<dim>1</dim>
					<dim>32</dim>
					<dim>92</dim>
					<dim>108</dim>
				</port>
			</input>
			<output>
				<port id="3">
					<dim>1</dim>
					<dim>192</dim>
					<dim>92</dim>
					<dim>108</dim>
				</port>
			</output>
			<blobs>
				<weights offset="50720" size="24576"/>
				<biases offset="75296" size="768"/>
			</blobs>
		</layer>
		<layer id="12" name="MobilenetV2/expanded_conv_2/expand/Relu6" precision="FP32" type="Clamp">
			<data max="6" min="0"/>
			<input>
				<port id="0">
					<dim>1</dim>
					<dim>192</dim>
					<dim>92</dim>
					<dim>108</dim>
				</port>
			</input>
			<output>
				<port id="1">
					<dim>1</dim>
					<dim>192</dim>
					<dim>92</dim>
					<dim>108</dim>
				</port>
			</output>
		</layer>
		<layer id="13" name="MobilenetV2/expanded_conv_2/depthwise/depthwise" precision="FP32" type="Convolution">
			<data auto_pad="same_upper" dilations="1,1" group="192" kernel="3,3" output="192" pads_begin="1,1" pads_end="1,1" strides="1,1"/>
			<input>
				<port id="0">
					<dim>1</dim>
					<dim>192</dim>
					<dim>92</dim>
					<dim>108</dim>
				</port>
			</input>
			<output>
				<port id="3">
					<dim>1</dim>
					<dim>192</dim>
					<dim>92</dim>
					<dim>108</dim>
				</port>
			</output>
			<blobs>
				<weights offset="76064" size="6912"/>
				<biases offset="82976" size="768"/>
			</blobs>
		</layer>
		<layer id="14" name="MobilenetV2/expanded_conv_2/depthwise/Relu6" precision="FP32" type="Clamp">
			<data max="6" min="0"/>
			<input>
				<port id="0">
					<dim>1</dim>
					<dim>192</dim>
					<dim>92</dim>
					<dim>108</dim>
				</port>
			</input>
			<output>
				<port id="1">
					<dim>1</dim>
					<dim>192</dim>
					<dim>92</dim>
					<dim>108</dim>
				</port>
			</output>
		</layer>
		<layer id="15" name="MobilenetV2/expanded_conv_2/project/Conv2D" precision="FP32" type="Convolution">
			<data auto_pad="same_upper" dilations="1,1" group="1" kernel="1,1" output="32" pads_begin="0,0" pads_end="0,0" strides="1,1"/>
			<input>
				<port id="0">
					<dim>1</dim>
					<dim>192</dim>
					<dim>92</dim>
					<dim>108</dim>
				</port>
			</input>
			<output>
				<port id="3">
					<dim>1</dim>
					<dim>32</dim>
					<dim>92</dim>
					<dim>108</dim>
				</port>
			</output>
			<blobs>
				<weights offset="83744" size="24576"/>
				<biases offset="108320" size="128"/>
			</blobs>
		</layer>
		<layer id="16" name="MobilenetV2/expanded_conv_2/add" precision="FP32" type="Eltwise">
			<data operation="sum"/>
			<input>
				<port id="0">
					<dim>1</dim>
					<dim>32</dim>
					<dim>92</dim>
					<dim>108</dim>
				</port>
				<port id="1">
					<dim>1</dim>
					<dim>32</dim>
					<dim>92</dim>
					<dim>108</dim>
				</port>
			</input>
			<output>
				<port id="2">
					<dim>1</dim>
					<dim>32</dim>
					<dim>92</dim>
					<dim>108</dim>
				</port>
			</output>
		</layer>
		<layer id="17" name="MobilenetV2/expanded_conv_3/expand/Conv2D" precision="FP32" type="Convolution">
			<data auto_pad="same_upper" dilations="1,1" group="1" kernel="1,1" output="192" pads_begin="0,0" pads_end="0,0" strides="1,1"/>
			<input>
				<port id="0">
					<dim>1</dim>
					<dim>32</dim>
					<dim>92</dim>
					<dim>108</dim>
				</port>
			</input>
			<output>
				<port id="3">
					<dim>1</dim>
					<dim>192</dim>
					<dim>92</dim>
					<dim>108</dim>
				</port>
			</output>
			<blobs>
				<weights offset="108448" size="24576"/>
				<biases offset="133024" size="768"/>
			</blobs>
		</layer>
		<layer id="18" name="MobilenetV2/expanded_conv_3/expand/Relu6" precision="FP32" type="Clamp">
			<data max="6" min="0"/>
			<input>
				<port id="0">
					<dim>1</dim>
					<dim>192</dim>
					<dim>92</dim>
					<dim>108</dim>
				</port>
			</input>
			<output>
				<port id="1">
					<dim>1</dim>
					<dim>192</dim>
					<dim>92</dim>
					<dim>108</dim>
				</port>
			</output>
		</layer>
		<layer id="19" name="MobilenetV2/expanded_conv_3/depthwise/depthwise" precision="FP32" type="Convolution">
			<data auto_pad="same_upper" dilations="1,1" group="192" kernel="3,3" output="192" pads_begin="0,0" pads_end="1,1" strides="2,2"/>
			<input>
				<port id="0">
					<dim>1</dim>
					<dim>192</dim>
					<dim>92</dim>
					<dim>108</dim>
				</port>
			</input>
			<output>
				<port id="3">
					<dim>1</dim>
					<dim>192</dim>
					<dim>46</dim>
					<dim>54</dim>
				</port>
			</output>
			<blobs>
				<weights offset="133792" size="6912"/>
				<biases offset="140704" size="768"/>
			</blobs>
		</layer>
		<layer id="20" name="MobilenetV2/expanded_conv_3/depthwise/Relu6" precision="FP32" type="Clamp">
			<data max="6" min="0"/>
			<input>
				<port id="0">
					<dim>1</dim>
					<dim>192</dim>
					<dim>46</dim>
					<dim>54</dim>
				</port>
			</input>
			<output>
				<port id="1">
					<dim>1</dim>
					<dim>192</dim>
					<dim>46</dim>
					<dim>54</dim>
				</port>
			</output>
		</layer>
		<layer id="21" name="MobilenetV2/expanded_conv_3/project/Conv2D" precision="FP32" type="Convolution">
			<data auto_pad="same_upper" dilations="1,1" group="1" kernel="1,1" output="48" pads_begin="0,0" pads_end="0,0" strides="1,1"/>
			<input>
				<port id="0">
					<dim>1</dim>
					<dim>192</dim>
					<dim>46</dim>
					<dim>54</dim>
				</port>
			</input>
			<output>
				<port id="3">
					<dim>1</dim>
					<dim>48</dim>
					<dim>46</dim>
					<dim>54</dim>
				</port>
			</output>
			<blobs>
				<weights offset="141472" size="36864"/>
				<biases offset="178336" size="192"/>
			</blobs>
		</layer>
		<layer id="22" name="MobilenetV2/expanded_conv_4/expand/Conv2D" precision="FP32" type="Convolution">
			<data auto_pad="same_upper" dilations="1,1" group="1" kernel="1,1" output="288" pads_begin="0,0" pads_end="0,0" strides="1,1"/>
			<input>
				<port id="0">
					<dim>1</dim>
					<dim>48</dim>
					<dim>46</dim>
					<dim>54</dim>
				</port>
			</input>
			<output>
				<port id="3">
					<dim>1</dim>
					<dim>288</dim>
					<dim>46</dim>
					<dim>54</dim>
				</port>
			</output>
			<blobs>
				<weights offset="178528" size="55296"/>
				<biases offset="233824" size="1152"/>
			</blobs>
		</layer>
		<layer id="23" name="MobilenetV2/expanded_conv_4/expand/Relu6" precision="FP32" type="Clamp">
			<data max="6" min="0"/>
			<input>
				<port id="0">
					<dim>1</dim>
					<dim>288</dim>
					<dim>46</dim>
					<dim>54</dim>
				</port>
			</input>
			<output>
				<port id="1">
					<dim>1</dim>
					<dim>288</dim>
					<dim>46</dim>
					<dim>54</dim>
				</port>
			</output>
		</layer>
		<layer id="24" name="MobilenetV2/expanded_conv_4/depthwise/depthwise" precision="FP32" type="Convolution">
			<data auto_pad="same_upper" dilations="1,1" group="288" kernel="3,3" output="288" pads_begin="1,1" pads_end="1,1" strides="1,1"/>
			<input>
				<port id="0">
					<dim>1</dim>
					<dim>288</dim>
					<dim>46</dim>
					<dim>54</dim>
				</port>
			</input>
			<output>
				<port id="3">
					<dim>1</dim>
					<dim>288</dim>
					<dim>46</dim>
					<dim>54</dim>
				</port>
			</output>
			<blobs>
				<weights offset="234976" size="10368"/>
				<biases offset="245344" size="1152"/>
			</blobs>
		</layer>
		<layer id="25" name="MobilenetV2/expanded_conv_4/depthwise/Relu6" precision="FP32" type="Clamp">
			<data max="6" min="0"/>
			<input>
				<port id="0">
					<dim>1</dim>
					<dim>288</dim>
					<dim>46</dim>
					<dim>54</dim>
				</port>
			</input>
			<output>
				<port id="1">
					<dim>1</dim>
					<dim>288</dim>
					<dim>46</dim>
					<dim>54</dim>
				</port>
			</output>
		</layer>
		<layer id="26" name="MobilenetV2/expanded_conv_4/project/Conv2D" precision="FP32" type="Convolution">
			<data auto_pad="same_upper" dilations="1,1" group="1" kernel="1,1" output="48" pads_begin="0,0" pads_end="0,0" strides="1,1"/>
			<input>
				<port id="0">
					<dim>1</dim>
					<dim>288</dim>
					<dim>46</dim>
					<dim>54</dim>
				</port>
			</input>
			<output>
				<port id="3">
					<dim>1</dim>
					<dim>48</dim>
					<dim>46</dim>
					<dim>54</dim>
				</port>
			</output>
			<blobs>
				<weights offset="246496" size="55296"/>
				<biases offset="301792" size="192"/>
			</blobs>
		</layer>
		<layer id="27" name="MobilenetV2/expanded_conv_4/add" precision="FP32" type="Eltwise">
			<data operation="sum"/>
			<input>
				<port id="0">
					<dim>1</dim>
					<dim>48</dim>
					<dim>46</dim>
					<dim>54</dim>
				</port>
				<port id="1">
					<dim>1</dim>
					<dim>48</dim>
					<dim>46</dim>
					<dim>54</dim>
				</port>
			</input>
			<output>
				<port id="2">
					<dim>1</dim>
					<dim>48</dim>
					<dim>46</dim>
					<dim>54</dim>
				</port>
			</output>
		</layer>
		<layer id="28" name="MobilenetV2/expanded_conv_5/expand/Conv2D" precision="FP32" type="Convolution">
			<data auto_pad="same_upper" dilations="1,1" group="1" kernel="1,1" output="288" pads_begin="0,0" pads_end="0,0" strides="1,1"/>
			<input>
				<port id="0">
					<dim>1</dim>
					<dim>48</dim>
					<dim>46</dim>
					<dim>54</dim>
				</port>
			</input>
			<output>
				<port id="3">
					<dim>1</dim>
					<dim>288</dim>
					<dim>46</dim>
					<dim>54</dim>
				</port>
			</output>
			<blobs>
				<weights offset="301984" size="55296"/>
				<biases offset="357280" size="1152"/>
			</blobs>
		</layer>
		<layer id="29" name="MobilenetV2/expanded_conv_5/expand/Relu6" precision="FP32" type="Clamp">
			<data max="6" min="0"/>
			<input>
				<port id="0">
					<dim>1</dim>
					<dim>288</dim>
					<dim>46</dim>
					<dim>54</dim>
				</port>
			</input>
			<output>
				<port id="1">
					<dim>1</dim>
					<dim>288</dim>
					<dim>46</dim>
					<dim>54</dim>
				</port>
			</output>
		</layer>
		<layer id="30" name="MobilenetV2/expanded_conv_5/depthwise/depthwise" precision="FP32" type="Convolution">
			<data auto_pad="same_upper" dilations="1,1" group="288" kernel="3,3" output="288" pads_begin="1,1" pads_end="1,1" strides="1,1"/>
			<input>
				<port id="0">
					<dim>1</dim>
					<dim>288</dim>
					<dim>46</dim>
					<dim>54</dim>
				</port>
			</input>
			<output>
				<port id="3">
					<dim>1</dim>
					<dim>288</dim>
					<dim>46</dim>
					<dim>54</dim>
				</port>
			</output>
			<blobs>
				<weights offset="358432" size="10368"/>
				<biases offset="368800" size="1152"/>
			</blobs>
		</layer>
		<layer id="31" name="MobilenetV2/expanded_conv_5/depthwise/Relu6" precision="FP32" type="Clamp">
			<data max="6" min="0"/>
			<input>
				<port id="0">
					<dim>1</dim>
					<dim>288</dim>
					<dim>46</dim>
					<dim>54</dim>
				</port>
			</input>
			<output>
				<port id="1">
					<dim>1</dim>
					<dim>288</dim>
					<dim>46</dim>
					<dim>54</dim>
				</port>
			</output>
		</layer>
		<layer id="32" name="MobilenetV2/expanded_conv_5/project/Conv2D" precision="FP32" type="Convolution">
			<data auto_pad="same_upper" dilations="1,1" group="1" kernel="1,1" output="48" pads_begin="0,0" pads_end="0,0" strides="1,1"/>
			<input>
				<port id="0">
					<dim>1</dim>
					<dim>288</dim>
					<dim>46</dim>
					<dim>54</dim>
				</port>
			</input>
			<output>
				<port id="3">
					<dim>1</dim>
					<dim>48</dim>
					<dim>46</dim>
					<dim>54</dim>
				</port>
			</output>
			<blobs>
				<weights offset="369952" size="55296"/>
				<biases offset="425248" size="192"/>
			</blobs>
		</layer>
		<layer id="33" name="MobilenetV2/expanded_conv_5/add" precision="FP32" type="Eltwise">
			<data operation="sum"/>
			<input>
				<port id="0">
					<dim>1</dim>
					<dim>48</dim>
					<dim>46</dim>
					<dim>54</dim>
				</port>
				<port id="1">
					<dim>1</dim>
					<dim>48</dim>
					<dim>46</dim>
					<dim>54</dim>
				</port>
			</input>
			<output>
				<port id="2">
					<dim>1</dim>
					<dim>48</dim>
					<dim>46</dim>
					<dim>54</dim>
				</port>
			</output>
		</layer>
		<layer id="34" name="MobilenetV2/expanded_conv_6/expand/Conv2D" precision="FP32" type="Convolution">
			<data auto_pad="same_upper" dilations="1,1" group="1" kernel="1,1" output="288" pads_begin="0,0" pads_end="0,0" strides="1,1"/>
			<input>
				<port id="0">
					<dim>1</dim>
					<dim>48</dim>
					<dim>46</dim>
					<dim>54</dim>
				</port>
			</input>
			<output>
				<port id="3">
					<dim>1</dim>
					<dim>288</dim>
					<dim>46</dim>
					<dim>54</dim>
				</port>
			</output>
			<blobs>
				<weights offset="425440" size="55296"/>
				<biases offset="480736" size="1152"/>
			</blobs>
		</layer>
		<layer id="35" name="MobilenetV2/expanded_conv_6/expand/Relu6" precision="FP32" type="Clamp">
			<data max="6" min="0"/>
			<input>
				<port id="0">
					<dim>1</dim>
					<dim>288</dim>
					<dim>46</dim>
					<dim>54</dim>
				</port>
			</input>
			<output>
				<port id="1">
					<dim>1</dim>
					<dim>288</dim>
					<dim>46</dim>
					<dim>54</dim>
				</port>
			</output>
		</layer>
		<layer id="36" name="MobilenetV2/expanded_conv_6/depthwise/depthwise" precision="FP32" type="Convolution">
			<data auto_pad="same_upper" dilations="1,1" group="288" kernel="3,3" output="288" pads_begin="0,0" pads_end="1,1" strides="2,2"/>
			<input>
				<port id="0">
					<dim>1</dim>
					<dim>288</dim>
					<dim>46</dim>
					<dim>54</dim>
				</port>
			</input>
			<output>
				<port id="3">
					<dim>1</dim>
					<dim>288</dim>
					<dim>23</dim>
					<dim>27</dim>
				</port>
			</output>
			<blobs>
				<weights offset="481888" size="10368"/>
				<biases offset="492256" size="1152"/>
			</blobs>
		</layer>
		<layer id="37" name="MobilenetV2/expanded_conv_6/depthwise/Relu6" precision="FP32" type="Clamp">
			<data max="6" min="0"/>
			<input>
				<port id="0">
					<dim>1</dim>
					<dim>288</dim>
					<dim>23</dim>
					<dim>27</dim>
				</port>
			</input>
			<output>
				<port id="1">
					<dim>1</dim>
					<dim>288</dim>
					<dim>23</dim>
					<dim>27</dim>
				</port>
			</output>
		</layer>
		<layer id="38" name="MobilenetV2/expanded_conv_6/project/Conv2D" precision="FP32" type="Convolution">
			<data auto_pad="same_upper" dilations="1,1" group="1" kernel="1,1" output="88" pads_begin="0,0" pads_end="0,0" strides="1,1"/>
			<input>
				<port id="0">
					<dim>1</dim>
					<dim>288</dim>
					<dim>23</dim>
					<dim>27</dim>
				</port>
			</input>
			<output>
				<port id="3">
					<dim>1</dim>
					<dim>88</dim>
					<dim>23</dim>
					<dim>27</dim>
				</port>
			</output>
			<blobs>
				<weights offset="493408" size="101376"/>
				<biases offset="594784" size="352"/>
			</blobs>
		</layer>
		<layer id="39" name="MobilenetV2/expanded_conv_7/expand/Conv2D" precision="FP32" type="Convolution">
			<data auto_pad="same_upper" dilations="1,1" group="1" kernel="1,1" output="528" pads_begin="0,0" pads_end="0,0" strides="1,1"/>
			<input>
				<port id="0">
					<dim>1</dim>
					<dim>88</dim>
					<dim>23</dim>
					<dim>27</dim>
				</port>
			</input>
			<output>
				<port id="3">
					<dim>1</dim>
					<dim>528</dim>
					<dim>23</dim>
					<dim>27</dim>
				</port>
			</output>
			<blobs>
				<weights offset="595136" size="185856"/>
				<biases offset="780992" size="2112"/>
			</blobs>
		</layer>
		<layer id="40" name="MobilenetV2/expanded_conv_7/expand/Relu6" precision="FP32" type="Clamp">
			<data max="6" min="0"/>
			<input>
				<port id="0">
					<dim>1</dim>
					<dim>528</dim>
					<dim>23</dim>
					<dim>27</dim>
				</port>
			</input>
			<output>
				<port id="1">
					<dim>1</dim>
					<dim>528</dim>
					<dim>23</dim>
					<dim>27</dim>
				</port>
			</output>
		</layer>
		<layer id="41" name="MobilenetV2/expanded_conv_7/depthwise/depthwise" precision="FP32" type="Convolution">
			<data auto_pad="same_upper" dilations="1,1" group="528" kernel="3,3" output="528" pads_begin="1,1" pads_end="1,1" strides="1,1"/>
			<input>
				<port id="0">
					<dim>1</dim>
					<dim>528</dim>
					<dim>23</dim>
					<dim>27</dim>
				</port>
			</input>
			<output>
				<port id="3">
					<dim>1</dim>
					<dim>528</dim>
					<dim>23</dim>
					<dim>27</dim>
				</port>
			</output>
			<blobs>
				<weights offset="783104" size="19008"/>
				<biases offset="802112" size="2112"/>
			</blobs>
		</layer>
		<layer id="42" name="MobilenetV2/expanded_conv_7/depthwise/Relu6" precision="FP32" type="Clamp">
			<data max="6" min="0"/>
			<input>
				<port id="0">
					<dim>1</dim>
					<dim>528</dim>
					<dim>23</dim>
					<dim>27</dim>
				</port>
			</input>
			<output>
				<port id="1">
					<dim>1</dim>
					<dim>528</dim>
					<dim>23</dim>
					<dim>27</dim>
				</port>
			</output>
		</layer>
		<layer id="43" name="MobilenetV2/expanded_conv_7/project/Conv2D" precision="FP32" type="Convolution">
			<data auto_pad="same_upper" dilations="1,1" group="1" kernel="1,1" output="88" pads_begin="0,0" pads_end="0,0" strides="1,1"/>
			<input>
				<port id="0">
					<dim>1</dim>
					<dim>528</dim>
					<dim>23</dim>
					<dim>27</dim>
				</port>
			</input>
			<output>
				<port id="3">
					<dim>1</dim>
					<dim>88</dim>
					<dim>23</dim>
					<dim>27</dim>
				</port>
			</output>
			<blobs>
				<weights offset="804224" size="185856"/>
				<biases offset="990080" size="352"/>
			</blobs>
		</layer>
		<layer id="44" name="MobilenetV2/expanded_conv_7/add" precision="FP32" type="Eltwise">
			<data operation="sum"/>
			<input>
				<port id="0">
					<dim>1</dim>
					<dim>88</dim>
					<dim>23</dim>
					<dim>27</dim>
				</port>
				<port id="1">
					<dim>1</dim>
					<dim>88</dim>
					<dim>23</dim>
					<dim>27</dim>
				</port>
			</input>
			<output>
				<port id="2">
					<dim>1</dim>
					<dim>88</dim>
					<dim>23</dim>
					<dim>27</dim>
				</port>
			</output>
		</layer>
		<layer id="45" name="MobilenetV2/expanded_conv_8/expand/Conv2D" precision="FP32" type="Convolution">
			<data auto_pad="same_upper" dilations="1,1" group="1" kernel="1,1" output="528" pads_begin="0,0" pads_end="0,0" strides="1,1"/>
			<input>
				<port id="0">
					<dim>1</dim>
					<dim>88</dim>
					<dim>23</dim>
					<dim>27</dim>
				</port>
			</input>
			<output>
				<port id="3">
					<dim>1</dim>
					<dim>528</dim>
					<dim>23</dim>
					<dim>27</dim>
				</port>
			</output>
			<blobs>
				<weights offset="990432" size="185856"/>
				<biases offset="1176288" size="2112"/>
			</blobs>
		</layer>
		<layer id="46" name="MobilenetV2/expanded_conv_8/expand/Relu6" precision="FP32" type="Clamp">
			<data max="6" min="0"/>
			<input>
				<port id="0">
					<dim>1</dim>
					<dim>528</dim>
					<dim>23</dim>
					<dim>27</dim>
				</port>
			</input>
			<output>
				<port id="1">
					<dim>1</dim>
					<dim>528</dim>
					<dim>23</dim>
					<dim>27</dim>
				</port>
			</output>
		</layer>
		<layer id="47" name="MobilenetV2/expanded_conv_8/depthwise/depthwise" precision="FP32" type="Convolution">
			<data auto_pad="same_upper" dilations="1,1" group="528" kernel="3,3" output="528" pads_begin="1,1" pads_end="1,1" strides="1,1"/>
			<input>
				<port id="0">
					<dim>1</dim>
					<dim>528</dim>
					<dim>23</dim>
					<dim>27</dim>
				</port>
			</input>
			<output>
				<port id="3">
					<dim>1</dim>
					<dim>528</dim>
					<dim>23</dim>
					<dim>27</dim>
				</port>
			</output>
			<blobs>
				<weights offset="1178400" size="19008"/>
				<biases offset="1197408" size="2112"/>
			</blobs>
		</layer>
		<layer id="48" name="MobilenetV2/expanded_conv_8/depthwise/Relu6" precision="FP32" type="Clamp">
			<data max="6" min="0"/>
			<input>
				<port id="0">
					<dim>1</dim>
					<dim>528</dim>
					<dim>23</dim>
					<dim>27</dim>
				</port>
			</input>
			<output>
				<port id="1">
					<dim>1</dim>
					<dim>528</dim>
					<dim>23</dim>
					<dim>27</dim>
				</port>
			</output>
		</layer>
		<layer id="49" name="MobilenetV2/expanded_conv_8/project/Conv2D" precision="FP32" type="Convolution">
			<data auto_pad="same_upper" dilations="1,1" group="1" kernel="1,1" output="88" pads_begin="0,0" pads_end="0,0" strides="1,1"/>
			<input>
				<port id="0">
					<dim>1</dim>
					<dim>528</dim>
					<dim>23</dim>
					<dim>27</dim>
				</port>
			</input>
			<output>
				<port id="3">
					<dim>1</dim>
					<dim>88</dim>
					<dim>23</dim>
					<dim>27</dim>
				</port>
			</output>
			<blobs>
				<weights offset="1199520" size="185856"/>
				<biases offset="1385376" size="352"/>
			</blobs>
		</layer>
		<layer id="50" name="MobilenetV2/expanded_conv_8/add" precision="FP32" type="Eltwise">
			<data operation="sum"/>
			<input>
				<port id="0">
					<dim>1</dim>
					<dim>88</dim>
					<dim>23</dim>
					<dim>27</dim>
				</port>
				<port id="1">
					<dim>1</dim>
					<dim>88</dim>
					<dim>23</dim>
					<dim>27</dim>
				</port>
			</input>
			<output>
				<port id="2">
					<dim>1</dim>
					<dim>88</dim>
					<dim>23</dim>
					<dim>27</dim>
				</port>
			</output>
		</layer>
		<layer id="51" name="MobilenetV2/expanded_conv_9/expand/Conv2D" precision="FP32" type="Convolution">
			<data auto_pad="same_upper" dilations="1,1" group="1" kernel="1,1" output="528" pads_begin="0,0" pads_end="0,0" strides="1,1"/>
			<input>
				<port id="0">
					<dim>1</dim>
					<dim>88</dim>
					<dim>23</dim>
					<dim>27</dim>
				</port>
			</input>
			<output>
				<port id="3">
					<dim>1</dim>
					<dim>528</dim>
					<dim>23</dim>
					<dim>27</dim>
				</port>
			</output>
			<blobs>
				<weights offset="1385728" size="185856"/>
				<biases offset="1571584" size="2112"/>
			</blobs>
		</layer>
		<layer id="52" name="MobilenetV2/expanded_conv_9/expand/Relu6" precision="FP32" type="Clamp">
			<data max="6" min="0"/>
			<input>
				<port id="0">
					<dim>1</dim>
					<dim>528</dim>
					<dim>23</dim>
					<dim>27</dim>
				</port>
			</input>
			<output>
				<port id="1">
					<dim>1</dim>
					<dim>528</dim>
					<dim>23</dim>
					<dim>27</dim>
				</port>
			</output>
		</layer>
		<layer id="53" name="MobilenetV2/expanded_conv_9/depthwise/depthwise" precision="FP32" type="Convolution">
			<data auto_pad="same_upper" dilations="1,1" group="528" kernel="3,3" output="528" pads_begin="1,1" pads_end="1,1" strides="1,1"/>
			<input>
				<port id="0">
					<dim>1</dim>
					<dim>528</dim>
					<dim>23</dim>
					<dim>27</dim>
				</port>
			</input>
			<output>
				<port id="3">
					<dim>1</dim>
					<dim>528</dim>
					<dim>23</dim>
					<dim>27</dim>
				</port>
			</output>
			<blobs>
				<weights offset="1573696" size="19008"/>
				<biases offset="1592704" size="2112"/>
			</blobs>
		</layer>
		<layer id="54" name="MobilenetV2/expanded_conv_9/depthwise/Relu6" precision="FP32" type="Clamp">
			<data max="6" min="0"/>
			<input>
				<port id="0">
					<dim>1</dim>
					<dim>528</dim>
					<dim>23</dim>
					<dim>27</dim>
				</port>
			</input>
			<output>
				<port id="1">
					<dim>1</dim>
					<dim>528</dim>
					<dim>23</dim>
					<dim>27</dim>
				</port>
			</output>
		</layer>
		<layer id="55" name="MobilenetV2/expanded_conv_9/project/Conv2D" precision="FP32" type="Convolution">
			<data auto_pad="same_upper" dilations="1,1" group="1" kernel="1,1" output="88" pads_begin="0,0" pads_end="0,0" strides="1,1"/>
			<input>
				<port id="0">
					<dim>1</dim>
					<dim>528</dim>
					<dim>23</dim>
					<dim>27</dim>
				</port>
			</input>
			<output>
				<port id="3">
					<dim>1</dim>
					<dim>88</dim>
					<dim>23</dim>
					<dim>27</dim>
				</port>
			</output>
			<blobs>
				<weights offset="1594816" size="185856"/>
				<biases offset="1780672" size="352"/>
			</blobs>
		</layer>
		<layer id="56" name="MobilenetV2/expanded_conv_9/add" precision="FP32" type="Eltwise">
			<data operation="sum"/>
			<input>
				<port id="0">
					<dim>1</dim>
					<dim>88</dim>
					<dim>23</dim>
					<dim>27</dim>
				</port>
				<port id="1">
					<dim>1</dim>
					<dim>88</dim>
					<dim>23</dim>
					<dim>27</dim>
				</port>
			</input>
			<output>
				<port id="2">
					<dim>1</dim>
					<dim>88</dim>
					<dim>23</dim>
					<dim>27</dim>
				</port>
			</output>
		</layer>
		<layer id="57" name="MobilenetV2/expanded_conv_10/expand/Conv2D" precision="FP32" type="Convolution">
			<data auto_pad="same_upper" dilations="1,1" group="1" kernel="1,1" output="528" pads_begin="0,0" pads_end="0,0" strides="1,1"/>
			<input>
				<port id="0">
					<dim>1</dim>
					<dim>88</dim>
					<dim>23</dim>
					<dim>27</dim>
				</port>
			</input>
			<output>
				<port id="3">
					<dim>1</dim>
					<dim>528</dim>
					<dim>23</dim>
					<dim>27</dim>
				</port>
			</output>
			<blobs>
				<weights offset="1781024" size="185856"/>
				<biases offset="1966880" size="2112"/>
			</blobs>
		</layer>
		<layer id="58" name="MobilenetV2/expanded_conv_10/expand/Relu6" precision="FP32" type="Clamp">
			<data max="6" min="0"/>
			<input>
				<port id="0">
					<dim>1</dim>
					<dim>528</dim>
					<dim>23</dim>
					<dim>27</dim>
				</port>
			</input>
			<output>
				<port id="1">
					<dim>1</dim>
					<dim>528</dim>
					<dim>23</dim>
					<dim>27</dim>
				</port>
			</output>
		</layer>
		<layer id="59" name="MobilenetV2/expanded_conv_10/depthwise/depthwise" precision="FP32" type="Convolution">
			<data auto_pad="same_upper" dilations="1,1" group="528" kernel="3,3" output="528" pads_begin="1,1" pads_end="1,1" strides="1,1"/>
			<input>
				<port id="0">
					<dim>1</dim>
					<dim>528</dim>
					<dim>23</dim>
					<dim>27</dim>
				</port>
			</input>
			<output>
				<port id="3">
					<dim>1</dim>
					<dim>528</dim>
					<dim>23</dim>
					<dim>27</dim>
				</port>
			</output>
			<blobs>
				<weights offset="1968992" size="19008"/>
				<biases offset="1988000" size="2112"/>
			</blobs>
		</layer>
		<layer id="60" name="MobilenetV2/expanded_conv_10/depthwise/Relu6" precision="FP32" type="Clamp">
			<data max="6" min="0"/>
			<input>
				<port id="0">
					<dim>1</dim>
					<dim>528</dim>
					<dim>23</dim>
					<dim>27</dim>
				</port>
			</input>
			<output>
				<port id="1">
					<dim>1</dim>
					<dim>528</dim>
					<dim>23</dim>
					<dim>27</dim>
				</port>
			</output>
		</layer>
		<layer id="61" name="MobilenetV2/expanded_conv_10/project/Conv2D" precision="FP32" type="Convolution">
			<data auto_pad="same_upper" dilations="1,1" group="1" kernel="1,1" output="136" pads_begin="0,0" pads_end="0,0" strides="1,1"/>
			<input>
				<port id="0">
					<dim>1</dim>
					<dim>528</dim>
					<dim>23</dim>
					<dim>27</dim>
				</port>
			</input>
			<output>
				<port id="3">
					<dim>1</dim>
					<dim>136</dim>
					<dim>23</dim>
					<dim>27</dim>
				</port>
			</output>
			<blobs>
				<weights offset="1990112" size="287232"/>
				<biases offset="2277344" size="544"/>
			</blobs>
		</layer>
		<layer id="62" name="MobilenetV2/expanded_conv_11/expand/Conv2D" precision="FP32" type="Convolution">
			<data auto_pad="same_upper" dilations="1,1" group="1" kernel="1,1" output="816" pads_begin="0,0" pads_end="0,0" strides="1,1"/>
			<input>
				<port id="0">
					<dim>1</dim>
					<dim>136</dim>
					<dim>23</dim>
					<dim>27</dim>
				</port>
			</input>
			<output>
				<port id="3">
					<dim>1</dim>
					<dim>816</dim>
					<dim>23</dim>
					<dim>27</dim>
				</port>
			</output>
			<blobs>
				<weights offset="2277888" size="443904"/>
				<biases offset="2721792" size="3264"/>
			</blobs>
		</layer>
		<layer id="63" name="MobilenetV2/expanded_conv_11/expand/Relu6" precision="FP32" type="Clamp">
			<data max="6" min="0"/>
			<input>
				<port id="0">
					<dim>1</dim>
					<dim>816</dim>
					<dim>23</dim>
					<dim>27</dim>
				</port>
			</input>
			<output>
				<port id="1">
					<dim>1</dim>
					<dim>816</dim>
					<dim>23</dim>
					<dim>27</dim>
				</port>
			</output>
		</layer>
		<layer id="64" name="MobilenetV2/expanded_conv_11/depthwise/depthwise" precision="FP32" type="Convolution">
			<data auto_pad="same_upper" dilations="1,1" group="816" kernel="3,3" output="816" pads_begin="1,1" pads_end="1,1" strides="1,1"/>
			<input>
				<port id="0">
					<dim>1</dim>
					<dim>816</dim>
					<dim>23</dim>
					<dim>27</dim>
				</port>
			</input>
			<output>
				<port id="3">
					<dim>1</dim>
					<dim>816</dim>
					<dim>23</dim>
					<dim>27</dim>
				</port>
			</output>
			<blobs>
				<weights offset="2725056" size="29376"/>
				<biases offset="2754432" size="3264"/>
			</blobs>
		</layer>
		<layer id="65" name="MobilenetV2/expanded_conv_11/depthwise/Relu6" precision="FP32" type="Clamp">
			<data max="6" min="0"/>
			<input>
				<port id="0">
					<dim>1</dim>
					<dim>816</dim>
					<dim>23</dim>
					<dim>27</dim>
				</port>
			</input>
			<output>
				<port id="1">
					<dim>1</dim>
					<dim>816</dim>
					<dim>23</dim>
					<dim>27</dim>
				</port>
			</output>
		</layer>
		<layer id="66" name="MobilenetV2/expanded_conv_11/project/Conv2D" precision="FP32" type="Convolution">
			<data auto_pad="same_upper" dilations="1,1" group="1" kernel="1,1" output="136" pads_begin="0,0" pads_end="0,0" strides="1,1"/>
			<input>
				<port id="0">
					<dim>1</dim>
					<dim>816</dim>
					<dim>23</dim>
					<dim>27</dim>
				</port>
			</input>
			<output>
				<port id="3">
					<dim>1</dim>
					<dim>136</dim>
					<dim>23</dim>
					<dim>27</dim>
				</port>
			</output>
			<blobs>
				<weights offset="2757696" size="443904"/>
				<biases offset="3201600" size="544"/>
			</blobs>
		</layer>
		<layer id="67" name="MobilenetV2/expanded_conv_11/add" precision="FP32" type="Eltwise">
			<data operation="sum"/>
			<input>
				<port id="0">
					<dim>1</dim>
					<dim>136</dim>
					<dim>23</dim>
					<dim>27</dim>
				</port>
				<port id="1">
					<dim>1</dim>
					<dim>136</dim>
					<dim>23</dim>
					<dim>27</dim>
				</port>
			</input>
			<output>
				<port id="2">
					<dim>1</dim>
					<dim>136</dim>
					<dim>23</dim>
					<dim>27</dim>
				</port>
			</output>
		</layer>
		<layer id="68" name="MobilenetV2/expanded_conv_12/expand/Conv2D" precision="FP32" type="Convolution">
			<data auto_pad="same_upper" dilations="1,1" group="1" kernel="1,1" output="816" pads_begin="0,0" pads_end="0,0" strides="1,1"/>
			<input>
				<port id="0">
					<dim>1</dim>
					<dim>136</dim>
					<dim>23</dim>
					<dim>27</dim>
				</port>
			</input>
			<output>
				<port id="3">
					<dim>1</dim>
					<dim>816</dim>
					<dim>23</dim>
					<dim>27</dim>
				</port>
			</output>
			<blobs>
				<weights offset="3202144" size="443904"/>
				<biases offset="3646048" size="3264"/>
			</blobs>
		</layer>
		<layer id="69" name="MobilenetV2/expanded_conv_12/expand/Relu6" precision="FP32" type="Clamp">
			<data max="6" min="0"/>
			<input>
				<port id="0">
					<dim>1</dim>
					<dim>816</dim>
					<dim>23</dim>
					<dim>27</dim>
				</port>
			</input>
			<output>
				<port id="1">
					<dim>1</dim>
					<dim>816</dim>
					<dim>23</dim>
					<dim>27</dim>
				</port>
			</output>
		</layer>
		<layer id="70" name="MobilenetV2/expanded_conv_12/depthwise/depthwise" precision="FP32" type="Convolution">
			<data auto_pad="same_upper" dilations="1,1" group="816" kernel="3,3" output="816" pads_begin="1,1" pads_end="1,1" strides="1,1"/>
			<input>
				<port id="0">
					<dim>1</dim>
					<dim>816</dim>
					<dim>23</dim>
					<dim>27</dim>
				</port>
			</input>
			<output>
				<port id="3">
					<dim>1</dim>
					<dim>816</dim>
					<dim>23</dim>
					<dim>27</dim>
				</port>
			</output>
			<blobs>
				<weights offset="3649312" size="29376"/>
				<biases offset="3678688" size="3264"/>
			</blobs>
		</layer>
		<layer id="71" name="MobilenetV2/expanded_conv_12/depthwise/Relu6" precision="FP32" type="Clamp">
			<data max="6" min="0"/>
			<input>
				<port id="0">
					<dim>1</dim>
					<dim>816</dim>
					<dim>23</dim>
					<dim>27</dim>
				</port>
			</input>
			<output>
				<port id="1">
					<dim>1</dim>
					<dim>816</dim>
					<dim>23</dim>
					<dim>27</dim>
				</port>
			</output>
		</layer>
		<layer id="72" name="MobilenetV2/expanded_conv_12/project/Conv2D" precision="FP32" type="Convolution">
			<data auto_pad="same_upper" dilations="1,1" group="1" kernel="1,1" output="136" pads_begin="0,0" pads_end="0,0" strides="1,1"/>
			<input>
				<port id="0">
					<dim>1</dim>
					<dim>816</dim>
					<dim>23</dim>
					<dim>27</dim>
				</port>
			</input>
			<output>
				<port id="3">
					<dim>1</dim>
					<dim>136</dim>
					<dim>23</dim>
					<dim>27</dim>
				</port>
			</output>
			<blobs>
				<weights offset="3681952" size="443904"/>
				<biases offset="4125856" size="544"/>
			</blobs>
		</layer>
		<layer id="73" name="MobilenetV2/expanded_conv_12/add" precision="FP32" type="Eltwise">
			<data operation="sum"/>
			<input>
				<port id="0">
					<dim>1</dim>
					<dim>136</dim>
					<dim>23</dim>
					<dim>27</dim>
				</port>
				<port id="1">
					<dim>1</dim>
					<dim>136</dim>
					<dim>23</dim>
					<dim>27</dim>
				</port>
			</input>
			<output>
				<port id="2">
					<dim>1</dim>
					<dim>136</dim>
					<dim>23</dim>
					<dim>27</dim>
				</port>
			</output>
		</layer>
		<layer id="74" name="base/layer_14/output/upsample" precision="FP32" type="Interp">
			<data align_corners="0" factor="2.0" pad_beg="0" pad_end="0"/>
			<input>
				<port id="0">
					<dim>1</dim>
					<dim>136</dim>
					<dim>23</dim>
					<dim>27</dim>
				</port>
			</input>
			<output>
				<port id="1">
					<dim>1</dim>
					<dim>136</dim>
					<dim>46</dim>
					<dim>54</dim>
				</port>
			</output>
		</layer>
		<layer id="75" name="feat_concat" precision="FP32" type="Concat">
			<data axis="1"/>
			<input>
				<port id="0">
					<dim>1</dim>
					<dim>48</dim>
					<dim>46</dim>
					<dim>54</dim>
				</port>
				<port id="1">
					<dim>1</dim>
					<dim>136</dim>
					<dim>46</dim>
					<dim>54</dim>
				</port>
			</input>
			<output>
				<port id="2">
					<dim>1</dim>
					<dim>184</dim>
					<dim>46</dim>
					<dim>54</dim>
				</port>
			</output>
		</layer>
		<layer id="76" name="Openpose/MConv_Stage1_L1_1_depthwise/depthwise" precision="FP32" type="Convolution">
			<data auto_pad="same_upper" dilations="1,1" group="184" kernel="3,3" output="184" pads_begin="1,1" pads_end="1,1" strides="1,1"/>
			<input>
				<port id="0">
					<dim>1</dim>
					<dim>184</dim>
					<dim>46</dim>
					<dim>54</dim>
				</port>
			</input>
			<output>
				<port id="2">
					<dim>1</dim>
					<dim>184</dim>
					<dim>46</dim>
					<dim>54</dim>
				</port>
			</output>
			<blobs>
				<weights offset="4126400" size="6624"/>
			</blobs>
		</layer>
		<layer id="77" name="Openpose/MConv_Stage1_L1_1_pointwise/Conv2D" precision="FP32" type="Convolution">
			<data auto_pad="same_upper" dilations="1,1" group="1" kernel="1,1" output="128" pads_begin="0,0" pads_end="0,0" strides="1,1"/>
			<input>
				<port id="0">
					<dim>1</dim>
					<dim>184</dim>
					<dim>46</dim>
					<dim>54</dim>
				</port>
			</input>
			<output>
				<port id="3">
					<dim>1</dim>
					<dim>128</dim>
					<dim>46</dim>
					<dim>54</dim>
				</port>
			</output>
			<blobs>
				<weights offset="4133024" size="94208"/>
				<biases offset="4227232" size="512"/>
			</blobs>
		</layer>
		<layer id="78" name="Openpose/MConv_Stage1_L1_1_pointwise/Relu" precision="FP32" type="ReLU">
			<input>
				<port id="0">
					<dim>1</dim>
					<dim>128</dim>
					<dim>46</dim>
					<dim>54</dim>
				</port>
			</input>
			<output>
				<port id="1">
					<dim>1</dim>
					<dim>128</dim>
					<dim>46</dim>
					<dim>54</dim>
				</port>
			</output>
		</layer>
		<layer id="79" name="Openpose/MConv_Stage1_L1_2_depthwise/depthwise" precision="FP32" type="Convolution">
			<data auto_pad="same_upper" dilations="1,1" group="128" kernel="3,3" output="128" pads_begin="1,1" pads_end="1,1" strides="1,1"/>
			<input>
				<port id="0">
					<dim>1</dim>
					<dim>128</dim>
					<dim>46</dim>
					<dim>54</dim>
				</port>
			</input>
			<output>
				<port id="2">
					<dim>1</dim>
					<dim>128</dim>
					<dim>46</dim>
					<dim>54</dim>
				</port>
			</output>
			<blobs>
				<weights offset="4227744" size="4608"/>
			</blobs>
		</layer>
		<layer id="80" name="Openpose/MConv_Stage1_L1_2_pointwise/Conv2D" precision="FP32" type="Convolution">
			<data auto_pad="same_upper" dilations="1,1" group="1" kernel="1,1" output="128" pads_begin="0,0" pads_end="0,0" strides="1,1"/>
			<input>
				<port id="0">
					<dim>1</dim>
					<dim>128</dim>
					<dim>46</dim>
					<dim>54</dim>
				</port>
			</input>
			<output>
				<port id="3">
					<dim>1</dim>
					<dim>128</dim>
					<dim>46</dim>
					<dim>54</dim>
				</port>
			</output>
			<blobs>
				<weights offset="4232352" size="65536"/>
				<biases offset="4297888" size="512"/>
			</blobs>
		</layer>
		<layer id="81" name="Openpose/MConv_Stage1_L1_2_pointwise/Relu" precision="FP32" type="ReLU">
			<input>
				<port id="0">
					<dim>1</dim>
					<dim>128</dim>
					<dim>46</dim>
					<dim>54</dim>
				</port>
			</input>
			<output>
				<port id="1">
					<dim>1</dim>
					<dim>128</dim>
					<dim>46</dim>
					<dim>54</dim>
				</port>
			</output>
		</layer>
		<layer id="82" name="Openpose/MConv_Stage1_L1_3_depthwise/depthwise" precision="FP32" type="Convolution">
			<data auto_pad="same_upper" dilations="1,1" group="128" kernel="3,3" output="128" pads_begin="1,1" pads_end="1,1" strides="1,1"/>
			<input>
				<port id="0">
					<dim>1</dim>
					<dim>128</dim>
					<dim>46</dim>
					<dim>54</dim>
				</port>
			</input>
			<output>
				<port id="2">
					<dim>1</dim>
					<dim>128</dim>
					<dim>46</dim>
					<dim>54</dim>
				</port>
			</output>
			<blobs>
				<weights offset="4298400" size="4608"/>
			</blobs>
		</layer>
		<layer id="83" name="Openpose/MConv_Stage1_L1_3_pointwise/Conv2D" precision="FP32" type="Convolution">
			<data auto_pad="same_upper" dilations="1,1" group="1" kernel="1,1" output="128" pads_begin="0,0" pads_end="0,0" strides="1,1"/>
			<input>
				<port id="0">
					<dim>1</dim>
					<dim>128</dim>
					<dim>46</dim>
					<dim>54</dim>
				</port>
			</input>
			<output>
				<port id="3">
					<dim>1</dim>
					<dim>128</dim>
					<dim>46</dim>
					<dim>54</dim>
				</port>
			</output>
			<blobs>
				<weights offset="4303008" size="65536"/>
				<biases offset="4368544" size="512"/>
			</blobs>
		</layer>
		<layer id="84" name="Openpose/MConv_Stage1_L1_3_pointwise/Relu" precision="FP32" type="ReLU">
			<input>
				<port id="0">
					<dim>1</dim>
					<dim>128</dim>
					<dim>46</dim>
					<dim>54</dim>
				</port>
			</input>
			<output>
				<port id="1">
					<dim>1</dim>
					<dim>128</dim>
					<dim>46</dim>
					<dim>54</dim>
				</port>
			</output>
		</layer>
		<layer id="85" name="Openpose/MConv_Stage1_L1_4_depthwise/depthwise" precision="FP32" type="Convolution">
			<data auto_pad="same_upper" dilations="1,1" group="128" kernel="1,1" output="128" pads_begin="0,0" pads_end="0,0" strides="1,1"/>
			<input>
				<port id="0">
					<dim>1</dim>
					<dim>128</dim>
					<dim>46</dim>
					<dim>54</dim>
				</port>
			</input>
			<output>
				<port id="2">
					<dim>1</dim>
					<dim>128</dim>
					<dim>46</dim>
					<dim>54</dim>
				</port>
			</output>
			<blobs>
				<weights offset="4369056" size="512"/>
			</blobs>
		</layer>
		<layer id="86" name="Openpose/MConv_Stage1_L1_4_pointwise/Conv2D" precision="FP32" type="Convolution">
			<data auto_pad="same_upper" dilations="1,1" group="1" kernel="1,1" output="512" pads_begin="0,0" pads_end="0,0" strides="1,1"/>
			<input>
				<port id="0">
					<dim>1</dim>
					<dim>128</dim>
					<dim>46</dim>
					<dim>54</dim>
				</port>
			</input>
			<output>
				<port id="3">
					<dim>1</dim>
					<dim>512</dim>
					<dim>46</dim>
					<dim>54</dim>
				</port>
			</output>
			<blobs>
				<weights offset="4369568" size="262144"/>
				<biases offset="4631712" size="2048"/>
			</blobs>
		</layer>
		<layer id="87" name="Openpose/MConv_Stage1_L1_4_pointwise/Relu" precision="FP32" type="ReLU">
			<input>
				<port id="0">
					<dim>1</dim>
					<dim>512</dim>
					<dim>46</dim>
					<dim>54</dim>
				</port>
			</input>
			<output>
				<port id="1">
					<dim>1</dim>
					<dim>512</dim>
					<dim>46</dim>
					<dim>54</dim>
				</port>
			</output>
		</layer>
		<layer id="88" name="Openpose/MConv_Stage1_L1_5_depthwise/depthwise" precision="FP32" type="Convolution">
			<data auto_pad="same_upper" dilations="1,1" group="512" kernel="1,1" output="512" pads_begin="0,0" pads_end="0,0" strides="1,1"/>
			<input>
				<port id="0">
					<dim>1</dim>
					<dim>512</dim>
					<dim>46</dim>
					<dim>54</dim>
				</port>
			</input>
			<output>
				<port id="2">
					<dim>1</dim>
					<dim>512</dim>
					<dim>46</dim>
					<dim>54</dim>
				</port>
			</output>
			<blobs>
				<weights offset="4633760" size="2048"/>
			</blobs>
		</layer>
		<layer id="89" name="Openpose/MConv_Stage1_L1_5_pointwise/Conv2D" precision="FP32" type="Convolution">
			<data auto_pad="same_upper" dilations="1,1" group="1" kernel="1,1" output="38" pads_begin="0,0" pads_end="0,0" strides="1,1"/>
			<input>
				<port id="0">
					<dim>1</dim>
					<dim>512</dim>
					<dim>46</dim>
					<dim>54</dim>
				</port>
			</input>
			<output>
				<port id="3">
					<dim>1</dim>
					<dim>38</dim>
					<dim>46</dim>
					<dim>54</dim>
				</port>
			</output>
			<blobs>
				<weights offset="4635808" size="77824"/>
				<biases offset="4713632" size="152"/>
			</blobs>
		</layer>
		<layer id="90" name="Openpose/MConv_Stage1_L2_1_depthwise/depthwise" precision="FP32" type="Convolution">
			<data auto_pad="same_upper" dilations="1,1" group="184" kernel="3,3" output="184" pads_begin="1,1" pads_end="1,1" strides="1,1"/>
			<input>
				<port id="0">
					<dim>1</dim>
					<dim>184</dim>
					<dim>46</dim>
					<dim>54</dim>
				</port>
			</input>
			<output>
				<port id="2">
					<dim>1</dim>
					<dim>184</dim>
					<dim>46</dim>
					<dim>54</dim>
				</port>
			</output>
			<blobs>
				<weights offset="4713784" size="6624"/>
			</blobs>
		</layer>
		<layer id="91" name="Openpose/MConv_Stage1_L2_1_pointwise/Conv2D" precision="FP32" type="Convolution">
			<data auto_pad="same_upper" dilations="1,1" group="1" kernel="1,1" output="128" pads_begin="0,0" pads_end="0,0" strides="1,1"/>
			<input>
				<port id="0">
					<dim>1</dim>
					<dim>184</dim>
					<dim>46</dim>
					<dim>54</dim>
				</port>
			</input>
			<output>
				<port id="3">
					<dim>1</dim>
					<dim>128</dim>
					<dim>46</dim>
					<dim>54</dim>
				</port>
			</output>
			<blobs>
				<weights offset="4720408" size="94208"/>
				<biases offset="4814616" size="512"/>
			</blobs>
		</layer>
		<layer id="92" name="Openpose/MConv_Stage1_L2_1_pointwise/Relu" precision="FP32" type="ReLU">
			<input>
				<port id="0">
					<dim>1</dim>
					<dim>128</dim>
					<dim>46</dim>
					<dim>54</dim>
				</port>
			</input>
			<output>
				<port id="1">
					<dim>1</dim>
					<dim>128</dim>
					<dim>46</dim>
					<dim>54</dim>
				</port>
			</output>
		</layer>
		<layer id="93" name="Openpose/MConv_Stage1_L2_2_depthwise/depthwise" precision="FP32" type="Convolution">
			<data auto_pad="same_upper" dilations="1,1" group="128" kernel="3,3" output="128" pads_begin="1,1" pads_end="1,1" strides="1,1"/>
			<input>
				<port id="0">
					<dim>1</dim>
					<dim>128</dim>
					<dim>46</dim>
					<dim>54</dim>
				</port>
			</input>
			<output>
				<port id="2">
					<dim>1</dim>
					<dim>128</dim>
					<dim>46</dim>
					<dim>54</dim>
				</port>
			</output>
			<blobs>
				<weights offset="4815128" size="4608"/>
			</blobs>
		</layer>
		<layer id="94" name="Openpose/MConv_Stage1_L2_2_pointwise/Conv2D" precision="FP32" type="Convolution">
			<data auto_pad="same_upper" dilations="1,1" group="1" kernel="1,1" output="128" pads_begin="0,0" pads_end="0,0" strides="1,1"/>
			<input>
				<port id="0">
					<dim>1</dim>
					<dim>128</dim>
					<dim>46</dim>
					<dim>54</dim>
				</port>
			</input>
			<output>
				<port id="3">
					<dim>1</dim>
					<dim>128</dim>
					<dim>46</dim>
					<dim>54</dim>
				</port>
			</output>
			<blobs>
				<weights offset="4819736" size="65536"/>
				<biases offset="4885272" size="512"/>
			</blobs>
		</layer>
		<layer id="95" name="Openpose/MConv_Stage1_L2_2_pointwise/Relu" precision="FP32" type="ReLU">
			<input>
				<port id="0">
					<dim>1</dim>
					<dim>128</dim>
					<dim>46</dim>
					<dim>54</dim>
				</port>
			</input>
			<output>
				<port id="1">
					<dim>1</dim>
					<dim>128</dim>
					<dim>46</dim>
					<dim>54</dim>
				</port>
			</output>
		</layer>
		<layer id="96" name="Openpose/MConv_Stage1_L2_3_depthwise/depthwise" precision="FP32" type="Convolution">
			<data auto_pad="same_upper" dilations="1,1" group="128" kernel="3,3" output="128" pads_begin="1,1" pads_end="1,1" strides="1,1"/>
			<input>
				<port id="0">
					<dim>1</dim>
					<dim>128</dim>
					<dim>46</dim>
					<dim>54</dim>
				</port>
			</input>
			<output>
				<port id="2">
					<dim>1</dim>
					<dim>128</dim>
					<dim>46</dim>
					<dim>54</dim>
				</port>
			</output>
			<blobs>
				<weights offset="4885784" size="4608"/>
			</blobs>
		</layer>
		<layer id="97" name="Openpose/MConv_Stage1_L2_3_pointwise/Conv2D" precision="FP32" type="Convolution">
			<data auto_pad="same_upper" dilations="1,1" group="1" kernel="1,1" output="128" pads_begin="0,0" pads_end="0,0" strides="1,1"/>
			<input>
				<port id="0">
					<dim>1</dim>
					<dim>128</dim>
					<dim>46</dim>
					<dim>54</dim>
				</port>
			</input>
			<output>
				<port id="3">
					<dim>1</dim>
					<dim>128</dim>
					<dim>46</dim>
					<dim>54</dim>
				</port>
			</output>
			<blobs>
				<weights offset="4890392" size="65536"/>
				<biases offset="4955928" size="512"/>
			</blobs>
		</layer>
		<layer id="98" name="Openpose/MConv_Stage1_L2_3_pointwise/Relu" precision="FP32" type="ReLU">
			<input>
				<port id="0">
					<dim>1</dim>
					<dim>128</dim>
					<dim>46</dim>
					<dim>54</dim>
				</port>
			</input>
			<output>
				<port id="1">
					<dim>1</dim>
					<dim>128</dim>
					<dim>46</dim>
					<dim>54</dim>
				</port>
			</output>
		</layer>
		<layer id="99" name="Openpose/MConv_Stage1_L2_4_depthwise/depthwise" precision="FP32" type="Convolution">
			<data auto_pad="same_upper" dilations="1,1" group="128" kernel="1,1" output="128" pads_begin="0,0" pads_end="0,0" strides="1,1"/>
			<input>
				<port id="0">
					<dim>1</dim>
					<dim>128</dim>
					<dim>46</dim>
					<dim>54</dim>
				</port>
			</input>
			<output>
				<port id="2">
					<dim>1</dim>
					<dim>128</dim>
					<dim>46</dim>
					<dim>54</dim>
				</port>
			</output>
			<blobs>
				<weights offset="4956440" size="512"/>
			</blobs>
		</layer>
		<layer id="100" name="Openpose/MConv_Stage1_L2_4_pointwise/Conv2D" precision="FP32" type="Convolution">
			<data auto_pad="same_upper" dilations="1,1" group="1" kernel="1,1" output="512" pads_begin="0,0" pads_end="0,0" strides="1,1"/>
			<input>
				<port id="0">
					<dim>1</dim>
					<dim>128</dim>
					<dim>46</dim>
					<dim>54</dim>
				</port>
			</input>
			<output>
				<port id="3">
					<dim>1</dim>
					<dim>512</dim>
					<dim>46</dim>
					<dim>54</dim>
				</port>
			</output>
			<blobs>
				<weights offset="4956952" size="262144"/>
				<biases offset="5219096" size="2048"/>
			</blobs>
		</layer>
		<layer id="101" name="Openpose/MConv_Stage1_L2_4_pointwise/Relu" precision="FP32" type="ReLU">
			<input>
				<port id="0">
					<dim>1</dim>
					<dim>512</dim>
					<dim>46</dim>
					<dim>54</dim>
				</port>
			</input>
			<output>
				<port id="1">
					<dim>1</dim>
					<dim>512</dim>
					<dim>46</dim>
					<dim>54</dim>
				</port>
			</output>
		</layer>
		<layer id="102" name="Openpose/MConv_Stage1_L2_5_depthwise/depthwise" precision="FP32" type="Convolution">
			<data auto_pad="same_upper" dilations="1,1" group="512" kernel="1,1" output="512" pads_begin="0,0" pads_end="0,0" strides="1,1"/>
			<input>
				<port id="0">
					<dim>1</dim>
					<dim>512</dim>
					<dim>46</dim>
					<dim>54</dim>
				</port>
			</input>
			<output>
				<port id="2">
					<dim>1</dim>
					<dim>512</dim>
					<dim>46</dim>
					<dim>54</dim>
				</port>
			</output>
			<blobs>
				<weights offset="5221144" size="2048"/>
			</blobs>
		</layer>
		<layer id="103" name="Openpose/MConv_Stage1_L2_5_pointwise/Conv2D" precision="FP32" type="Convolution">
			<data auto_pad="same_upper" dilations="1,1" group="1" kernel="1,1" output="19" pads_begin="0,0" pads_end="0,0" strides="1,1"/>
			<input>
				<port id="0">
					<dim>1</dim>
					<dim>512</dim>
					<dim>46</dim>
					<dim>54</dim>
				</port>
			</input>
			<output>
				<port id="3">
					<dim>1</dim>
					<dim>19</dim>
					<dim>46</dim>
					<dim>54</dim>
				</port>
			</output>
			<blobs>
				<weights offset="5223192" size="38912"/>
				<biases offset="5262104" size="76"/>
			</blobs>
		</layer>
		<layer id="104" name="Openpose/MConv_Stage2_concat" precision="FP32" type="Concat">
			<data axis="1"/>
			<input>
				<port id="0">
					<dim>1</dim>
					<dim>38</dim>
					<dim>46</dim>
					<dim>54</dim>
				</port>
				<port id="1">
					<dim>1</dim>
					<dim>19</dim>
					<dim>46</dim>
					<dim>54</dim>
				</port>
				<port id="2">
					<dim>1</dim>
					<dim>184</dim>
					<dim>46</dim>
					<dim>54</dim>
				</port>
			</input>
			<output>
				<port id="3">
					<dim>1</dim>
					<dim>241</dim>
					<dim>46</dim>
					<dim>54</dim>
				</port>
			</output>
		</layer>
		<layer id="105" name="Openpose/MConv_Stage2_L1_1_depthwise/depthwise" precision="FP32" type="Convolution">
			<data auto_pad="same_upper" dilations="1,1" group="241" kernel="3,3" output="241" pads_begin="1,1" pads_end="1,1" strides="1,1"/>
			<input>
				<port id="0">
					<dim>1</dim>
					<dim>241</dim>
					<dim>46</dim>
					<dim>54</dim>
				</port>
			</input>
			<output>
				<port id="2">
					<dim>1</dim>
					<dim>241</dim>
					<dim>46</dim>
					<dim>54</dim>
				</port>
			</output>
			<blobs>
				<weights offset="5262180" size="8676"/>
			</blobs>
		</layer>
		<layer id="106" name="Openpose/MConv_Stage2_L1_1_pointwise/Conv2D" precision="FP32" type="Convolution">
			<data auto_pad="same_upper" dilations="1,1" group="1" kernel="1,1" output="128" pads_begin="0,0" pads_end="0,0" strides="1,1"/>
			<input>
				<port id="0">
					<dim>1</dim>
					<dim>241</dim>
					<dim>46</dim>
					<dim>54</dim>
				</port>
			</input>
			<output>
				<port id="3">
					<dim>1</dim>
					<dim>128</dim>
					<dim>46</dim>
					<dim>54</dim>
				</port>
			</output>
			<blobs>
				<weights offset="5270856" size="123392"/>
				<biases offset="5394248" size="512"/>
			</blobs>
		</layer>
		<layer id="107" name="Openpose/MConv_Stage2_L1_1_pointwise/Relu" precision="FP32" type="ReLU">
			<input>
				<port id="0">
					<dim>1</dim>
					<dim>128</dim>
					<dim>46</dim>
					<dim>54</dim>
				</port>
			</input>
			<output>
				<port id="1">
					<dim>1</dim>
					<dim>128</dim>
					<dim>46</dim>
					<dim>54</dim>
				</port>
			</output>
		</layer>
		<layer id="108" name="Openpose/MConv_Stage2_L1_2_depthwise/depthwise" precision="FP32" type="Convolution">
			<data auto_pad="same_upper" dilations="1,1" group="128" kernel="3,3" output="128" pads_begin="1,1" pads_end="1,1" strides="1,1"/>
			<input>
				<port id="0">
					<dim>1</dim>
					<dim>128</dim>
					<dim>46</dim>
					<dim>54</dim>
				</port>
			</input>
			<output>
				<port id="2">
					<dim>1</dim>
					<dim>128</dim>
					<dim>46</dim>
					<dim>54</dim>
				</port>
			</output>
			<blobs>
				<weights offset="5394760" size="4608"/>
			</blobs>
		</layer>
		<layer id="109" name="Openpose/MConv_Stage2_L1_2_pointwise/Conv2D" precision="FP32" type="Convolution">
			<data auto_pad="same_upper" dilations="1,1" group="1" kernel="1,1" output="128" pads_begin="0,0" pads_end="0,0" strides="1,1"/>
			<input>
				<port id="0">
					<dim>1</dim>
					<dim>128</dim>
					<dim>46</dim>
					<dim>54</dim>
				</port>
			</input>
			<output>
				<port id="3">
					<dim>1</dim>
					<dim>128</dim>
					<dim>46</dim>
					<dim>54</dim>
				</port>
			</output>
			<blobs>
				<weights offset="5399368" size="65536"/>
				<biases offset="5464904" size="512"/>
			</blobs>
		</layer>
		<layer id="110" name="Openpose/MConv_Stage2_L1_2_pointwise/Relu" precision="FP32" type="ReLU">
			<input>
				<port id="0">
					<dim>1</dim>
					<dim>128</dim>
					<dim>46</dim>
					<dim>54</dim>
				</port>
			</input>
			<output>
				<port id="1">
					<dim>1</dim>
					<dim>128</dim>
					<dim>46</dim>
					<dim>54</dim>
				</port>
			</output>
		</layer>
		<layer id="111" name="Openpose/MConv_Stage2_L1_3_depthwise/depthwise" precision="FP32" type="Convolution">
			<data auto_pad="same_upper" dilations="1,1" group="128" kernel="3,3" output="128" pads_begin="1,1" pads_end="1,1" strides="1,1"/>
			<input>
				<port id="0">
					<dim>1</dim>
					<dim>128</dim>
					<dim>46</dim>
					<dim>54</dim>
				</port>
			</input>
			<output>
				<port id="2">
					<dim>1</dim>
					<dim>128</dim>
					<dim>46</dim>
					<dim>54</dim>
				</port>
			</output>
			<blobs>
				<weights offset="5465416" size="4608"/>
			</blobs>
		</layer>
		<layer id="112" name="Openpose/MConv_Stage2_L1_3_pointwise/Conv2D" precision="FP32" type="Convolution">
			<data auto_pad="same_upper" dilations="1,1" group="1" kernel="1,1" output="128" pads_begin="0,0" pads_end="0,0" strides="1,1"/>
			<input>
				<port id="0">
					<dim>1</dim>
					<dim>128</dim>
					<dim>46</dim>
					<dim>54</dim>
				</port>
			</input>
			<output>
				<port id="3">
					<dim>1</dim>
					<dim>128</dim>
					<dim>46</dim>
					<dim>54</dim>
				</port>
			</output>
			<blobs>
				<weights offset="5470024" size="65536"/>
				<biases offset="5535560" size="512"/>
			</blobs>
		</layer>
		<layer id="113" name="Openpose/MConv_Stage2_L1_3_pointwise/Relu" precision="FP32" type="ReLU">
			<input>
				<port id="0">
					<dim>1</dim>
					<dim>128</dim>
					<dim>46</dim>
					<dim>54</dim>
				</port>
			</input>
			<output>
				<port id="1">
					<dim>1</dim>
					<dim>128</dim>
					<dim>46</dim>
					<dim>54</dim>
				</port>
			</output>
		</layer>
		<layer id="114" name="Openpose/MConv_Stage2_L1_4_depthwise/depthwise" precision="FP32" type="Convolution">
			<data auto_pad="same_upper" dilations="1,1" group="128" kernel="1,1" output="128" pads_begin="0,0" pads_end="0,0" strides="1,1"/>
			<input>
				<port id="0">
					<dim>1</dim>
					<dim>128</dim>
					<dim>46</dim>
					<dim>54</dim>
				</port>
			</input>
			<output>
				<port id="2">
					<dim>1</dim>
					<dim>128</dim>
					<dim>46</dim>
					<dim>54</dim>
				</port>
			</output>
			<blobs>
				<weights offset="5536072" size="512"/>
			</blobs>
		</layer>
		<layer id="115" name="Openpose/MConv_Stage2_L1_4_pointwise/Conv2D" precision="FP32" type="Convolution">
			<data auto_pad="same_upper" dilations="1,1" group="1" kernel="1,1" output="128" pads_begin="0,0" pads_end="0,0" strides="1,1"/>
			<input>
				<port id="0">
					<dim>1</dim>
					<dim>128</dim>
					<dim>46</dim>
					<dim>54</dim>
				</port>
			</input>
			<output>
				<port id="3">
					<dim>1</dim>
					<dim>128</dim>
					<dim>46</dim>
					<dim>54</dim>
				</port>
			</output>
			<blobs>
				<weights offset="5536584" size="65536"/>
				<biases offset="5602120" size="512"/>
			</blobs>
		</layer>
		<layer id="116" name="Openpose/MConv_Stage2_L1_4_pointwise/Relu" precision="FP32" type="ReLU">
			<input>
				<port id="0">
					<dim>1</dim>
					<dim>128</dim>
					<dim>46</dim>
					<dim>54</dim>
				</port>
			</input>
			<output>
				<port id="1">
					<dim>1</dim>
					<dim>128</dim>
					<dim>46</dim>
					<dim>54</dim>
				</port>
			</output>
		</layer>
		<layer id="117" name="Openpose/MConv_Stage2_L1_5_depthwise/depthwise" precision="FP32" type="Convolution">
			<data auto_pad="same_upper" dilations="1,1" group="128" kernel="1,1" output="128" pads_begin="0,0" pads_end="0,0" strides="1,1"/>
			<input>
				<port id="0">
					<dim>1</dim>
					<dim>128</dim>
					<dim>46</dim>
					<dim>54</dim>
				</port>
			</input>
			<output>
				<port id="2">
					<dim>1</dim>
					<dim>128</dim>
					<dim>46</dim>
					<dim>54</dim>
				</port>
			</output>
			<blobs>
				<weights offset="5602632" size="512"/>
			</blobs>
		</layer>
		<layer id="118" name="Openpose/MConv_Stage2_L1_5_pointwise/Conv2D" precision="FP32" type="Convolution">
			<data auto_pad="same_upper" dilations="1,1" group="1" kernel="1,1" output="38" pads_begin="0,0" pads_end="0,0" strides="1,1"/>
			<input>
				<port id="0">
					<dim>1</dim>
					<dim>128</dim>
					<dim>46</dim>
					<dim>54</dim>
				</port>
			</input>
			<output>
				<port id="3">
					<dim>1</dim>
					<dim>38</dim>
					<dim>46</dim>
					<dim>54</dim>
				</port>
			</output>
			<blobs>
				<weights offset="5603144" size="19456"/>
				<biases offset="5622600" size="152"/>
			</blobs>
		</layer>
		<layer id="119" name="Openpose/MConv_Stage2_L2_1_depthwise/depthwise" precision="FP32" type="Convolution">
			<data auto_pad="same_upper" dilations="1,1" group="241" kernel="3,3" output="241" pads_begin="1,1" pads_end="1,1" strides="1,1"/>
			<input>
				<port id="0">
					<dim>1</dim>
					<dim>241</dim>
					<dim>46</dim>
					<dim>54</dim>
				</port>
			</input>
			<output>
				<port id="2">
					<dim>1</dim>
					<dim>241</dim>
					<dim>46</dim>
					<dim>54</dim>
				</port>
			</output>
			<blobs>
				<weights offset="5622752" size="8676"/>
			</blobs>
		</layer>
		<layer id="120" name="Openpose/MConv_Stage2_L2_1_pointwise/Conv2D" precision="FP32" type="Convolution">
			<data auto_pad="same_upper" dilations="1,1" group="1" kernel="1,1" output="128" pads_begin="0,0" pads_end="0,0" strides="1,1"/>
			<input>
				<port id="0">
					<dim>1</dim>
					<dim>241</dim>
					<dim>46</dim>
					<dim>54</dim>
				</port>
			</input>
			<output>
				<port id="3">
					<dim>1</dim>
					<dim>128</dim>
					<dim>46</dim>
					<dim>54</dim>
				</port>
			</output>
			<blobs>
				<weights offset="5631428" size="123392"/>
				<biases offset="5754820" size="512"/>
			</blobs>
		</layer>
		<layer id="121" name="Openpose/MConv_Stage2_L2_1_pointwise/Relu" precision="FP32" type="ReLU">
			<input>
				<port id="0">
					<dim>1</dim>
					<dim>128</dim>
					<dim>46</dim>
					<dim>54</dim>
				</port>
			</input>
			<output>
				<port id="1">
					<dim>1</dim>
					<dim>128</dim>
					<dim>46</dim>
					<dim>54</dim>
				</port>
			</output>
		</layer>
		<layer id="122" name="Openpose/MConv_Stage2_L2_2_depthwise/depthwise" precision="FP32" type="Convolution">
			<data auto_pad="same_upper" dilations="1,1" group="128" kernel="3,3" output="128" pads_begin="1,1" pads_end="1,1" strides="1,1"/>
			<input>
				<port id="0">
					<dim>1</dim>
					<dim>128</dim>
					<dim>46</dim>
					<dim>54</dim>
				</port>
			</input>
			<output>
				<port id="2">
					<dim>1</dim>
					<dim>128</dim>
					<dim>46</dim>
					<dim>54</dim>
				</port>
			</output>
			<blobs>
				<weights offset="5755332" size="4608"/>
			</blobs>
		</layer>
		<layer id="123" name="Openpose/MConv_Stage2_L2_2_pointwise/Conv2D" precision="FP32" type="Convolution">
			<data auto_pad="same_upper" dilations="1,1" group="1" kernel="1,1" output="128" pads_begin="0,0" pads_end="0,0" strides="1,1"/>
			<input>
				<port id="0">
					<dim>1</dim>
					<dim>128</dim>
					<dim>46</dim>
					<dim>54</dim>
				</port>
			</input>
			<output>
				<port id="3">
					<dim>1</dim>
					<dim>128</dim>
					<dim>46</dim>
					<dim>54</dim>
				</port>
			</output>
			<blobs>
				<weights offset="5759940" size="65536"/>
				<biases offset="5825476" size="512"/>
			</blobs>
		</layer>
		<layer id="124" name="Openpose/MConv_Stage2_L2_2_pointwise/Relu" precision="FP32" type="ReLU">
			<input>
				<port id="0">
					<dim>1</dim>
					<dim>128</dim>
					<dim>46</dim>
					<dim>54</dim>
				</port>
			</input>
			<output>
				<port id="1">
					<dim>1</dim>
					<dim>128</dim>
					<dim>46</dim>
					<dim>54</dim>
				</port>
			</output>
		</layer>
		<layer id="125" name="Openpose/MConv_Stage2_L2_3_depthwise/depthwise" precision="FP32" type="Convolution">
			<data auto_pad="same_upper" dilations="1,1" group="128" kernel="3,3" output="128" pads_begin="1,1" pads_end="1,1" strides="1,1"/>
			<input>
				<port id="0">
					<dim>1</dim>
					<dim>128</dim>
					<dim>46</dim>
					<dim>54</dim>
				</port>
			</input>
			<output>
				<port id="2">
					<dim>1</dim>
					<dim>128</dim>
					<dim>46</dim>
					<dim>54</dim>
				</port>
			</output>
			<blobs>
				<weights offset="5825988" size="4608"/>
			</blobs>
		</layer>
		<layer id="126" name="Openpose/MConv_Stage2_L2_3_pointwise/Conv2D" precision="FP32" type="Convolution">
			<data auto_pad="same_upper" dilations="1,1" group="1" kernel="1,1" output="128" pads_begin="0,0" pads_end="0,0" strides="1,1"/>
			<input>
				<port id="0">
					<dim>1</dim>
					<dim>128</dim>
					<dim>46</dim>
					<dim>54</dim>
				</port>
			</input>
			<output>
				<port id="3">
					<dim>1</dim>
					<dim>128</dim>
					<dim>46</dim>
					<dim>54</dim>
				</port>
			</output>
			<blobs>
				<weights offset="5830596" size="65536"/>
				<biases offset="5896132" size="512"/>
			</blobs>
		</layer>
		<layer id="127" name="Openpose/MConv_Stage2_L2_3_pointwise/Relu" precision="FP32" type="ReLU">
			<input>
				<port id="0">
					<dim>1</dim>
					<dim>128</dim>
					<dim>46</dim>
					<dim>54</dim>
				</port>
			</input>
			<output>
				<port id="1">
					<dim>1</dim>
					<dim>128</dim>
					<dim>46</dim>
					<dim>54</dim>
				</port>
			</output>
		</layer>
		<layer id="128" name="Openpose/MConv_Stage2_L2_4_depthwise/depthwise" precision="FP32" type="Convolution">
			<data auto_pad="same_upper" dilations="1,1" group="128" kernel="1,1" output="128" pads_begin="0,0" pads_end="0,0" strides="1,1"/>
			<input>
				<port id="0">
					<dim>1</dim>
					<dim>128</dim>
					<dim>46</dim>
					<dim>54</dim>
				</port>
			</input>
			<output>
				<port id="2">
					<dim>1</dim>
					<dim>128</dim>
					<dim>46</dim>
					<dim>54</dim>
				</port>
			</output>
			<blobs>
				<weights offset="5896644" size="512"/>
			</blobs>
		</layer>
		<layer id="129" name="Openpose/MConv_Stage2_L2_4_pointwise/Conv2D" precision="FP32" type="Convolution">
			<data auto_pad="same_upper" dilations="1,1" group="1" kernel="1,1" output="128" pads_begin="0,0" pads_end="0,0" strides="1,1"/>
			<input>
				<port id="0">
					<dim>1</dim>
					<dim>128</dim>
					<dim>46</dim>
					<dim>54</dim>
				</port>
			</input>
			<output>
				<port id="3">
					<dim>1</dim>
					<dim>128</dim>
					<dim>46</dim>
					<dim>54</dim>
				</port>
			</output>
			<blobs>
				<weights offset="5897156" size="65536"/>
				<biases offset="5962692" size="512"/>
			</blobs>
		</layer>
		<layer id="130" name="Openpose/MConv_Stage2_L2_4_pointwise/Relu" precision="FP32" type="ReLU">
			<input>
				<port id="0">
					<dim>1</dim>
					<dim>128</dim>
					<dim>46</dim>
					<dim>54</dim>
				</port>
			</input>
			<output>
				<port id="1">
					<dim>1</dim>
					<dim>128</dim>
					<dim>46</dim>
					<dim>54</dim>
				</port>
			</output>
		</layer>
		<layer id="131" name="Openpose/MConv_Stage2_L2_5_depthwise/depthwise" precision="FP32" type="Convolution">
			<data auto_pad="same_upper" dilations="1,1" group="128" kernel="1,1" output="128" pads_begin="0,0" pads_end="0,0" strides="1,1"/>
			<input>
				<port id="0">
					<dim>1</dim>
					<dim>128</dim>
					<dim>46</dim>
					<dim>54</dim>
				</port>
			</input>
			<output>
				<port id="2">
					<dim>1</dim>
					<dim>128</dim>
					<dim>46</dim>
					<dim>54</dim>
				</port>
			</output>
			<blobs>
				<weights offset="5963204" size="512"/>
			</blobs>
		</layer>
		<layer id="132" name="Openpose/MConv_Stage2_L2_5_pointwise/Conv2D" precision="FP32" type="Convolution">
			<data auto_pad="same_upper" dilations="1,1" group="1" kernel="1,1" output="19" pads_begin="0,0" pads_end="0,0" strides="1,1"/>
			<input>
				<port id="0">
					<dim>1</dim>
					<dim>128</dim>
					<dim>46</dim>
					<dim>54</dim>
				</port>
			</input>
			<output>
				<port id="3">
					<dim>1</dim>
					<dim>19</dim>
					<dim>46</dim>
					<dim>54</dim>
				</port>
			</output>
			<blobs>
				<weights offset="5963716" size="9728"/>
				<biases offset="5973444" size="76"/>
			</blobs>
		</layer>
		<layer id="133" name="Openpose/MConv_Stage3_concat" precision="FP32" type="Concat">
			<data axis="1"/>
			<input>
				<port id="0">
					<dim>1</dim>
					<dim>38</dim>
					<dim>46</dim>
					<dim>54</dim>
				</port>
				<port id="1">
					<dim>1</dim>
					<dim>19</dim>
					<dim>46</dim>
					<dim>54</dim>
				</port>
				<port id="2">
					<dim>1</dim>
					<dim>184</dim>
					<dim>46</dim>
					<dim>54</dim>
				</port>
			</input>
			<output>
				<port id="3">
					<dim>1</dim>
					<dim>241</dim>
					<dim>46</dim>
					<dim>54</dim>
				</port>
			</output>
		</layer>
		<layer id="134" name="Openpose/MConv_Stage3_L1_1_depthwise/depthwise" precision="FP32" type="Convolution">
			<data auto_pad="same_upper" dilations="1,1" group="241" kernel="3,3" output="241" pads_begin="1,1" pads_end="1,1" strides="1,1"/>
			<input>
				<port id="0">
					<dim>1</dim>
					<dim>241</dim>
					<dim>46</dim>
					<dim>54</dim>
				</port>
			</input>
			<output>
				<port id="2">
					<dim>1</dim>
					<dim>241</dim>
					<dim>46</dim>
					<dim>54</dim>
				</port>
			</output>
			<blobs>
				<weights offset="5973520" size="8676"/>
			</blobs>
		</layer>
		<layer id="135" name="Openpose/MConv_Stage3_L1_1_pointwise/Conv2D" precision="FP32" type="Convolution">
			<data auto_pad="same_upper" dilations="1,1" group="1" kernel="1,1" output="128" pads_begin="0,0" pads_end="0,0" strides="1,1"/>
			<input>
				<port id="0">
					<dim>1</dim>
					<dim>241</dim>
					<dim>46</dim>
					<dim>54</dim>
				</port>
			</input>
			<output>
				<port id="3">
					<dim>1</dim>
					<dim>128</dim>
					<dim>46</dim>
					<dim>54</dim>
				</port>
			</output>
			<blobs>
				<weights offset="5982196" size="123392"/>
				<biases offset="6105588" size="512"/>
			</blobs>
		</layer>
		<layer id="136" name="Openpose/MConv_Stage3_L1_1_pointwise/Relu" precision="FP32" type="ReLU">
			<input>
				<port id="0">
					<dim>1</dim>
					<dim>128</dim>
					<dim>46</dim>
					<dim>54</dim>
				</port>
			</input>
			<output>
				<port id="1">
					<dim>1</dim>
					<dim>128</dim>
					<dim>46</dim>
					<dim>54</dim>
				</port>
			</output>
		</layer>
		<layer id="137" name="Openpose/MConv_Stage3_L1_2_depthwise/depthwise" precision="FP32" type="Convolution">
			<data auto_pad="same_upper" dilations="1,1" group="128" kernel="3,3" output="128" pads_begin="1,1" pads_end="1,1" strides="1,1"/>
			<input>
				<port id="0">
					<dim>1</dim>
					<dim>128</dim>
					<dim>46</dim>
					<dim>54</dim>
				</port>
			</input>
			<output>
				<port id="2">
					<dim>1</dim>
					<dim>128</dim>
					<dim>46</dim>
					<dim>54</dim>
				</port>
			</output>
			<blobs>
				<weights offset="6106100" size="4608"/>
			</blobs>
		</layer>
		<layer id="138" name="Openpose/MConv_Stage3_L1_2_pointwise/Conv2D" precision="FP32" type="Convolution">
			<data auto_pad="same_upper" dilations="1,1" group="1" kernel="1,1" output="128" pads_begin="0,0" pads_end="0,0" strides="1,1"/>
			<input>
				<port id="0">
					<dim>1</dim>
					<dim>128</dim>
					<dim>46</dim>
					<dim>54</dim>
				</port>
			</input>
			<output>
				<port id="3">
					<dim>1</dim>
					<dim>128</dim>
					<dim>46</dim>
					<dim>54</dim>
				</port>
			</output>
			<blobs>
				<weights offset="6110708" size="65536"/>
				<biases offset="6176244" size="512"/>
			</blobs>
		</layer>
		<layer id="139" name="Openpose/MConv_Stage3_L1_2_pointwise/Relu" precision="FP32" type="ReLU">
			<input>
				<port id="0">
					<dim>1</dim>
					<dim>128</dim>
					<dim>46</dim>
					<dim>54</dim>
				</port>
			</input>
			<output>
				<port id="1">
					<dim>1</dim>
					<dim>128</dim>
					<dim>46</dim>
					<dim>54</dim>
				</port>
			</output>
		</layer>
		<layer id="140" name="Openpose/MConv_Stage3_L1_3_depthwise/depthwise" precision="FP32" type="Convolution">
			<data auto_pad="same_upper" dilations="1,1" group="128" kernel="3,3" output="128" pads_begin="1,1" pads_end="1,1" strides="1,1"/>
			<input>
				<port id="0">
					<dim>1</dim>
					<dim>128</dim>
					<dim>46</dim>
					<dim>54</dim>
				</port>
			</input>
			<output>
				<port id="2">
					<dim>1</dim>
					<dim>128</dim>
					<dim>46</dim>
					<dim>54</dim>
				</port>
			</output>
			<blobs>
				<weights offset="6176756" size="4608"/>
			</blobs>
		</layer>
		<layer id="141" name="Openpose/MConv_Stage3_L1_3_pointwise/Conv2D" precision="FP32" type="Convolution">
			<data auto_pad="same_upper" dilations="1,1" group="1" kernel="1,1" output="128" pads_begin="0,0" pads_end="0,0" strides="1,1"/>
			<input>
				<port id="0">
					<dim>1</dim>
					<dim>128</dim>
					<dim>46</dim>
					<dim>54</dim>
				</port>
			</input>
			<output>
				<port id="3">
					<dim>1</dim>
					<dim>128</dim>
					<dim>46</dim>
					<dim>54</dim>
				</port>
			</output>
			<blobs>
				<weights offset="6181364" size="65536"/>
				<biases offset="6246900" size="512"/>
			</blobs>
		</layer>
		<layer id="142" name="Openpose/MConv_Stage3_L1_3_pointwise/Relu" precision="FP32" type="ReLU">
			<input>
				<port id="0">
					<dim>1</dim>
					<dim>128</dim>
					<dim>46</dim>
					<dim>54</dim>
				</port>
			</input>
			<output>
				<port id="1">
					<dim>1</dim>
					<dim>128</dim>
					<dim>46</dim>
					<dim>54</dim>
				</port>
			</output>
		</layer>
		<layer id="143" name="Openpose/MConv_Stage3_L1_4_depthwise/depthwise" precision="FP32" type="Convolution">
			<data auto_pad="same_upper" dilations="1,1" group="128" kernel="1,1" output="128" pads_begin="0,0" pads_end="0,0" strides="1,1"/>
			<input>
				<port id="0">
					<dim>1</dim>
					<dim>128</dim>
					<dim>46</dim>
					<dim>54</dim>
				</port>
			</input>
			<output>
				<port id="2">
					<dim>1</dim>
					<dim>128</dim>
					<dim>46</dim>
					<dim>54</dim>
				</port>
			</output>
			<blobs>
				<weights offset="6247412" size="512"/>
			</blobs>
		</layer>
		<layer id="144" name="Openpose/MConv_Stage3_L1_4_pointwise/Conv2D" precision="FP32" type="Convolution">
			<data auto_pad="same_upper" dilations="1,1" group="1" kernel="1,1" output="128" pads_begin="0,0" pads_end="0,0" strides="1,1"/>
			<input>
				<port id="0">
					<dim>1</dim>
					<dim>128</dim>
					<dim>46</dim>
					<dim>54</dim>
				</port>
			</input>
			<output>
				<port id="3">
					<dim>1</dim>
					<dim>128</dim>
					<dim>46</dim>
					<dim>54</dim>
				</port>
			</output>
			<blobs>
				<weights offset="6247924" size="65536"/>
				<biases offset="6313460" size="512"/>
			</blobs>
		</layer>
		<layer id="145" name="Openpose/MConv_Stage3_L1_4_pointwise/Relu" precision="FP32" type="ReLU">
			<input>
				<port id="0">
					<dim>1</dim>
					<dim>128</dim>
					<dim>46</dim>
					<dim>54</dim>
				</port>
			</input>
			<output>
				<port id="1">
					<dim>1</dim>
					<dim>128</dim>
					<dim>46</dim>
					<dim>54</dim>
				</port>
			</output>
		</layer>
		<layer id="146" name="Openpose/MConv_Stage3_L1_5_depthwise/depthwise" precision="FP32" type="Convolution">
			<data auto_pad="same_upper" dilations="1,1" group="128" kernel="1,1" output="128" pads_begin="0,0" pads_end="0,0" strides="1,1"/>
			<input>
				<port id="0">
					<dim>1</dim>
					<dim>128</dim>
					<dim>46</dim>
					<dim>54</dim>
				</port>
			</input>
			<output>
				<port id="2">
					<dim>1</dim>
					<dim>128</dim>
					<dim>46</dim>
					<dim>54</dim>
				</port>
			</output>
			<blobs>
				<weights offset="6313972" size="512"/>
			</blobs>
		</layer>
		<layer id="147" name="Openpose/MConv_Stage3_L1_5_pointwise/Conv2D" precision="FP32" type="Convolution">
			<data auto_pad="same_upper" dilations="1,1" group="1" kernel="1,1" output="38" pads_begin="0,0" pads_end="0,0" strides="1,1"/>
			<input>
				<port id="0">
					<dim>1</dim>
					<dim>128</dim>
					<dim>46</dim>
					<dim>54</dim>
				</port>
			</input>
			<output>
				<port id="3">
					<dim>1</dim>
					<dim>38</dim>
					<dim>46</dim>
					<dim>54</dim>
				</port>
			</output>
			<blobs>
				<weights offset="6314484" size="19456"/>
				<biases offset="6333940" size="152"/>
			</blobs>
		</layer>
		<layer id="148" name="Openpose/MConv_Stage3_L2_1_depthwise/depthwise" precision="FP32" type="Convolution">
			<data auto_pad="same_upper" dilations="1,1" group="241" kernel="3,3" output="241" pads_begin="1,1" pads_end="1,1" strides="1,1"/>
			<input>
				<port id="0">
					<dim>1</dim>
					<dim>241</dim>
					<dim>46</dim>
					<dim>54</dim>
				</port>
			</input>
			<output>
				<port id="2">
					<dim>1</dim>
					<dim>241</dim>
					<dim>46</dim>
					<dim>54</dim>
				</port>
			</output>
			<blobs>
				<weights offset="6334092" size="8676"/>
			</blobs>
		</layer>
		<layer id="149" name="Openpose/MConv_Stage3_L2_1_pointwise/Conv2D" precision="FP32" type="Convolution">
			<data auto_pad="same_upper" dilations="1,1" group="1" kernel="1,1" output="128" pads_begin="0,0" pads_end="0,0" strides="1,1"/>
			<input>
				<port id="0">
					<dim>1</dim>
					<dim>241</dim>
					<dim>46</dim>
					<dim>54</dim>
				</port>
			</input>
			<output>
				<port id="3">
					<dim>1</dim>
					<dim>128</dim>
					<dim>46</dim>
					<dim>54</dim>
				</port>
			</output>
			<blobs>
				<weights offset="6342768" size="123392"/>
				<biases offset="6466160" size="512"/>
			</blobs>
		</layer>
		<layer id="150" name="Openpose/MConv_Stage3_L2_1_pointwise/Relu" precision="FP32" type="ReLU">
			<input>
				<port id="0">
					<dim>1</dim>
					<dim>128</dim>
					<dim>46</dim>
					<dim>54</dim>
				</port>
			</input>
			<output>
				<port id="1">
					<dim>1</dim>
					<dim>128</dim>
					<dim>46</dim>
					<dim>54</dim>
				</port>
			</output>
		</layer>
		<layer id="151" name="Openpose/MConv_Stage3_L2_2_depthwise/depthwise" precision="FP32" type="Convolution">
			<data auto_pad="same_upper" dilations="1,1" group="128" kernel="3,3" output="128" pads_begin="1,1" pads_end="1,1" strides="1,1"/>
			<input>
				<port id="0">
					<dim>1</dim>
					<dim>128</dim>
					<dim>46</dim>
					<dim>54</dim>
				</port>
			</input>
			<output>
				<port id="2">
					<dim>1</dim>
					<dim>128</dim>
					<dim>46</dim>
					<dim>54</dim>
				</port>
			</output>
			<blobs>
				<weights offset="6466672" size="4608"/>
			</blobs>
		</layer>
		<layer id="152" name="Openpose/MConv_Stage3_L2_2_pointwise/Conv2D" precision="FP32" type="Convolution">
			<data auto_pad="same_upper" dilations="1,1" group="1" kernel="1,1" output="128" pads_begin="0,0" pads_end="0,0" strides="1,1"/>
			<input>
				<port id="0">
					<dim>1</dim>
					<dim>128</dim>
					<dim>46</dim>
					<dim>54</dim>
				</port>
			</input>
			<output>
				<port id="3">
					<dim>1</dim>
					<dim>128</dim>
					<dim>46</dim>
					<dim>54</dim>
				</port>
			</output>
			<blobs>
				<weights offset="6471280" size="65536"/>
				<biases offset="6536816" size="512"/>
			</blobs>
		</layer>
		<layer id="153" name="Openpose/MConv_Stage3_L2_2_pointwise/Relu" precision="FP32" type="ReLU">
			<input>
				<port id="0">
					<dim>1</dim>
					<dim>128</dim>
					<dim>46</dim>
					<dim>54</dim>
				</port>
			</input>
			<output>
				<port id="1">
					<dim>1</dim>
					<dim>128</dim>
					<dim>46</dim>
					<dim>54</dim>
				</port>
			</output>
		</layer>
		<layer id="154" name="Openpose/MConv_Stage3_L2_3_depthwise/depthwise" precision="FP32" type="Convolution">
			<data auto_pad="same_upper" dilations="1,1" group="128" kernel="3,3" output="128" pads_begin="1,1" pads_end="1,1" strides="1,1"/>
			<input>
				<port id="0">
					<dim>1</dim>
					<dim>128</dim>
					<dim>46</dim>
					<dim>54</dim>
				</port>
			</input>
			<output>
				<port id="2">
					<dim>1</dim>
					<dim>128</dim>
					<dim>46</dim>
					<dim>54</dim>
				</port>
			</output>
			<blobs>
				<weights offset="6537328" size="4608"/>
			</blobs>
		</layer>
		<layer id="155" name="Openpose/MConv_Stage3_L2_3_pointwise/Conv2D" precision="FP32" type="Convolution">
			<data auto_pad="same_upper" dilations="1,1" group="1" kernel="1,1" output="128" pads_begin="0,0" pads_end="0,0" strides="1,1"/>
			<input>
				<port id="0">
					<dim>1</dim>
					<dim>128</dim>
					<dim>46</dim>
					<dim>54</dim>
				</port>
			</input>
			<output>
				<port id="3">
					<dim>1</dim>
					<dim>128</dim>
					<dim>46</dim>
					<dim>54</dim>
				</port>
			</output>
			<blobs>
				<weights offset="6541936" size="65536"/>
				<biases offset="6607472" size="512"/>
			</blobs>
		</layer>
		<layer id="156" name="Openpose/MConv_Stage3_L2_3_pointwise/Relu" precision="FP32" type="ReLU">
			<input>
				<port id="0">
					<dim>1</dim>
					<dim>128</dim>
					<dim>46</dim>
					<dim>54</dim>
				</port>
			</input>
			<output>
				<port id="1">
					<dim>1</dim>
					<dim>128</dim>
					<dim>46</dim>
					<dim>54</dim>
				</port>
			</output>
		</layer>
		<layer id="157" name="Openpose/MConv_Stage3_L2_4_depthwise/depthwise" precision="FP32" type="Convolution">
			<data auto_pad="same_upper" dilations="1,1" group="128" kernel="1,1" output="128" pads_begin="0,0" pads_end="0,0" strides="1,1"/>
			<input>
				<port id="0">
					<dim>1</dim>
					<dim>128</dim>
					<dim>46</dim>
					<dim>54</dim>
				</port>
			</input>
			<output>
				<port id="2">
					<dim>1</dim>
					<dim>128</dim>
					<dim>46</dim>
					<dim>54</dim>
				</port>
			</output>
			<blobs>
				<weights offset="6607984" size="512"/>
			</blobs>
		</layer>
		<layer id="158" name="Openpose/MConv_Stage3_L2_4_pointwise/Conv2D" precision="FP32" type="Convolution">
			<data auto_pad="same_upper" dilations="1,1" group="1" kernel="1,1" output="128" pads_begin="0,0" pads_end="0,0" strides="1,1"/>
			<input>
				<port id="0">
					<dim>1</dim>
					<dim>128</dim>
					<dim>46</dim>
					<dim>54</dim>
				</port>
			</input>
			<output>
				<port id="3">
					<dim>1</dim>
					<dim>128</dim>
					<dim>46</dim>
					<dim>54</dim>
				</port>
			</output>
			<blobs>
				<weights offset="6608496" size="65536"/>
				<biases offset="6674032" size="512"/>
			</blobs>
		</layer>
		<layer id="159" name="Openpose/MConv_Stage3_L2_4_pointwise/Relu" precision="FP32" type="ReLU">
			<input>
				<port id="0">
					<dim>1</dim>
					<dim>128</dim>
					<dim>46</dim>
					<dim>54</dim>
				</port>
			</input>
			<output>
				<port id="1">
					<dim>1</dim>
					<dim>128</dim>
					<dim>46</dim>
					<dim>54</dim>
				</port>
			</output>
		</layer>
		<layer id="160" name="Openpose/MConv_Stage3_L2_5_depthwise/depthwise" precision="FP32" type="Convolution">
			<data auto_pad="same_upper" dilations="1,1" group="128" kernel="1,1" output="128" pads_begin="0,0" pads_end="0,0" strides="1,1"/>
			<input>
				<port id="0">
					<dim>1</dim>
					<dim>128</dim>
					<dim>46</dim>
					<dim>54</dim>
				</port>
			</input>
			<output>
				<port id="2">
					<dim>1</dim>
					<dim>128</dim>
					<dim>46</dim>
					<dim>54</dim>
				</port>
			</output>
			<blobs>
				<weights offset="6674544" size="512"/>
			</blobs>
		</layer>
		<layer id="161" name="Openpose/MConv_Stage3_L2_5_pointwise/Conv2D" precision="FP32" type="Convolution">
			<data auto_pad="same_upper" dilations="1,1" group="1" kernel="1,1" output="19" pads_begin="0,0" pads_end="0,0" strides="1,1"/>
			<input>
				<port id="0">
					<dim>1</dim>
					<dim>128</dim>
					<dim>46</dim>
					<dim>54</dim>
				</port>
			</input>
			<output>
				<port id="3">
					<dim>1</dim>
					<dim>19</dim>
					<dim>46</dim>
					<dim>54</dim>
				</port>
			</output>
			<blobs>
				<weights offset="6675056" size="9728"/>
				<biases offset="6684784" size="76"/>
			</blobs>
		</layer>
		<layer id="162" name="Openpose/MConv_Stage4_concat" precision="FP32" type="Concat">
			<data axis="1"/>
			<input>
				<port id="0">
					<dim>1</dim>
					<dim>38</dim>
					<dim>46</dim>
					<dim>54</dim>
				</port>
				<port id="1">
					<dim>1</dim>
					<dim>19</dim>
					<dim>46</dim>
					<dim>54</dim>
				</port>
				<port id="2">
					<dim>1</dim>
					<dim>184</dim>
					<dim>46</dim>
					<dim>54</dim>
				</port>
			</input>
			<output>
				<port id="3">
					<dim>1</dim>
					<dim>241</dim>
					<dim>46</dim>
					<dim>54</dim>
				</port>
			</output>
		</layer>
		<layer id="163" name="Openpose/MConv_Stage4_L1_1_depthwise/depthwise" precision="FP32" type="Convolution">
			<data auto_pad="same_upper" dilations="1,1" group="241" kernel="3,3" output="241" pads_begin="1,1" pads_end="1,1" strides="1,1"/>
			<input>
				<port id="0">
					<dim>1</dim>
					<dim>241</dim>
					<dim>46</dim>
					<dim>54</dim>
				</port>
			</input>
			<output>
				<port id="2">
					<dim>1</dim>
					<dim>241</dim>
					<dim>46</dim>
					<dim>54</dim>
				</port>
			</output>
			<blobs>
				<weights offset="6684860" size="8676"/>
			</blobs>
		</layer>
		<layer id="164" name="Openpose/MConv_Stage4_L1_1_pointwise/Conv2D" precision="FP32" type="Convolution">
			<data auto_pad="same_upper" dilations="1,1" group="1" kernel="1,1" output="128" pads_begin="0,0" pads_end="0,0" strides="1,1"/>
			<input>
				<port id="0">
					<dim>1</dim>
					<dim>241</dim>
					<dim>46</dim>
					<dim>54</dim>
				</port>
			</input>
			<output>
				<port id="3">
					<dim>1</dim>
					<dim>128</dim>
					<dim>46</dim>
					<dim>54</dim>
				</port>
			</output>
			<blobs>
				<weights offset="6693536" size="123392"/>
				<biases offset="6816928" size="512"/>
			</blobs>
		</layer>
		<layer id="165" name="Openpose/MConv_Stage4_L1_1_pointwise/Relu" precision="FP32" type="ReLU">
			<input>
				<port id="0">
					<dim>1</dim>
					<dim>128</dim>
					<dim>46</dim>
					<dim>54</dim>
				</port>
			</input>
			<output>
				<port id="1">
					<dim>1</dim>
					<dim>128</dim>
					<dim>46</dim>
					<dim>54</dim>
				</port>
			</output>
		</layer>
		<layer id="166" name="Openpose/MConv_Stage4_L1_2_depthwise/depthwise" precision="FP32" type="Convolution">
			<data auto_pad="same_upper" dilations="1,1" group="128" kernel="3,3" output="128" pads_begin="1,1" pads_end="1,1" strides="1,1"/>
			<input>
				<port id="0">
					<dim>1</dim>
					<dim>128</dim>
					<dim>46</dim>
					<dim>54</dim>
				</port>
			</input>
			<output>
				<port id="2">
					<dim>1</dim>
					<dim>128</dim>
					<dim>46</dim>
					<dim>54</dim>
				</port>
			</output>
			<blobs>
				<weights offset="6817440" size="4608"/>
			</blobs>
		</layer>
		<layer id="167" name="Openpose/MConv_Stage4_L1_2_pointwise/Conv2D" precision="FP32" type="Convolution">
			<data auto_pad="same_upper" dilations="1,1" group="1" kernel="1,1" output="128" pads_begin="0,0" pads_end="0,0" strides="1,1"/>
			<input>
				<port id="0">
					<dim>1</dim>
					<dim>128</dim>
					<dim>46</dim>
					<dim>54</dim>
				</port>
			</input>
			<output>
				<port id="3">
					<dim>1</dim>
					<dim>128</dim>
					<dim>46</dim>
					<dim>54</dim>
				</port>
			</output>
			<blobs>
				<weights offset="6822048" size="65536"/>
				<biases offset="6887584" size="512"/>
			</blobs>
		</layer>
		<layer id="168" name="Openpose/MConv_Stage4_L1_2_pointwise/Relu" precision="FP32" type="ReLU">
			<input>
				<port id="0">
					<dim>1</dim>
					<dim>128</dim>
					<dim>46</dim>
					<dim>54</dim>
				</port>
			</input>
			<output>
				<port id="1">
					<dim>1</dim>
					<dim>128</dim>
					<dim>46</dim>
					<dim>54</dim>
				</port>
			</output>
		</layer>
		<layer id="169" name="Openpose/MConv_Stage4_L1_3_depthwise/depthwise" precision="FP32" type="Convolution">
			<data auto_pad="same_upper" dilations="1,1" group="128" kernel="3,3" output="128" pads_begin="1,1" pads_end="1,1" strides="1,1"/>
			<input>
				<port id="0">
					<dim>1</dim>
					<dim>128</dim>
					<dim>46</dim>
					<dim>54</dim>
				</port>
			</input>
			<output>
				<port id="2">
					<dim>1</dim>
					<dim>128</dim>
					<dim>46</dim>
					<dim>54</dim>
				</port>
			</output>
			<blobs>
				<weights offset="6888096" size="4608"/>
			</blobs>
		</layer>
		<layer id="170" name="Openpose/MConv_Stage4_L1_3_pointwise/Conv2D" precision="FP32" type="Convolution">
			<data auto_pad="same_upper" dilations="1,1" group="1" kernel="1,1" output="128" pads_begin="0,0" pads_end="0,0" strides="1,1"/>
			<input>
				<port id="0">
					<dim>1</dim>
					<dim>128</dim>
					<dim>46</dim>
					<dim>54</dim>
				</port>
			</input>
			<output>
				<port id="3">
					<dim>1</dim>
					<dim>128</dim>
					<dim>46</dim>
					<dim>54</dim>
				</port>
			</output>
			<blobs>
				<weights offset="6892704" size="65536"/>
				<biases offset="6958240" size="512"/>
			</blobs>
		</layer>
		<layer id="171" name="Openpose/MConv_Stage4_L1_3_pointwise/Relu" precision="FP32" type="ReLU">
			<input>
				<port id="0">
					<dim>1</dim>
					<dim>128</dim>
					<dim>46</dim>
					<dim>54</dim>
				</port>
			</input>
			<output>
				<port id="1">
					<dim>1</dim>
					<dim>128</dim>
					<dim>46</dim>
					<dim>54</dim>
				</port>
			</output>
		</layer>
		<layer id="172" name="Openpose/MConv_Stage4_L1_4_depthwise/depthwise" precision="FP32" type="Convolution">
			<data auto_pad="same_upper" dilations="1,1" group="128" kernel="1,1" output="128" pads_begin="0,0" pads_end="0,0" strides="1,1"/>
			<input>
				<port id="0">
					<dim>1</dim>
					<dim>128</dim>
					<dim>46</dim>
					<dim>54</dim>
				</port>
			</input>
			<output>
				<port id="2">
					<dim>1</dim>
					<dim>128</dim>
					<dim>46</dim>
					<dim>54</dim>
				</port>
			</output>
			<blobs>
				<weights offset="6958752" size="512"/>
			</blobs>
		</layer>
		<layer id="173" name="Openpose/MConv_Stage4_L1_4_pointwise/Conv2D" precision="FP32" type="Convolution">
			<data auto_pad="same_upper" dilations="1,1" group="1" kernel="1,1" output="128" pads_begin="0,0" pads_end="0,0" strides="1,1"/>
			<input>
				<port id="0">
					<dim>1</dim>
					<dim>128</dim>
					<dim>46</dim>
					<dim>54</dim>
				</port>
			</input>
			<output>
				<port id="3">
					<dim>1</dim>
					<dim>128</dim>
					<dim>46</dim>
					<dim>54</dim>
				</port>
			</output>
			<blobs>
				<weights offset="6959264" size="65536"/>
				<biases offset="7024800" size="512"/>
			</blobs>
		</layer>
		<layer id="174" name="Openpose/MConv_Stage4_L1_4_pointwise/Relu" precision="FP32" type="ReLU">
			<input>
				<port id="0">
					<dim>1</dim>
					<dim>128</dim>
					<dim>46</dim>
					<dim>54</dim>
				</port>
			</input>
			<output>
				<port id="1">
					<dim>1</dim>
					<dim>128</dim>
					<dim>46</dim>
					<dim>54</dim>
				</port>
			</output>
		</layer>
		<layer id="175" name="Openpose/MConv_Stage4_L1_5_depthwise/depthwise" precision="FP32" type="Convolution">
			<data auto_pad="same_upper" dilations="1,1" group="128" kernel="1,1" output="128" pads_begin="0,0" pads_end="0,0" strides="1,1"/>
			<input>
				<port id="0">
					<dim>1</dim>
					<dim>128</dim>
					<dim>46</dim>
					<dim>54</dim>
				</port>
			</input>
			<output>
				<port id="2">
					<dim>1</dim>
					<dim>128</dim>
					<dim>46</dim>
					<dim>54</dim>
				</port>
			</output>
			<blobs>
				<weights offset="7025312" size="512"/>
			</blobs>
		</layer>
		<layer id="176" name="Openpose/MConv_Stage4_L1_5_pointwise/Conv2D" precision="FP32" type="Convolution">
			<data auto_pad="same_upper" dilations="1,1" group="1" kernel="1,1" output="38" pads_begin="0,0" pads_end="0,0" strides="1,1"/>
			<input>
				<port id="0">
					<dim>1</dim>
					<dim>128</dim>
					<dim>46</dim>
					<dim>54</dim>
				</port>
			</input>
			<output>
				<port id="3">
					<dim>1</dim>
					<dim>38</dim>
					<dim>46</dim>
					<dim>54</dim>
				</port>
			</output>
			<blobs>
				<weights offset="7025824" size="19456"/>
				<biases offset="7045280" size="152"/>
			</blobs>
		</layer>
		<layer id="177" name="Openpose/MConv_Stage4_L2_1_depthwise/depthwise" precision="FP32" type="Convolution">
			<data auto_pad="same_upper" dilations="1,1" group="241" kernel="3,3" output="241" pads_begin="1,1" pads_end="1,1" strides="1,1"/>
			<input>
				<port id="0">
					<dim>1</dim>
					<dim>241</dim>
					<dim>46</dim>
					<dim>54</dim>
				</port>
			</input>
			<output>
				<port id="2">
					<dim>1</dim>
					<dim>241</dim>
					<dim>46</dim>
					<dim>54</dim>
				</port>
			</output>
			<blobs>
				<weights offset="7045432" size="8676"/>
			</blobs>
		</layer>
		<layer id="178" name="Openpose/MConv_Stage4_L2_1_pointwise/Conv2D" precision="FP32" type="Convolution">
			<data auto_pad="same_upper" dilations="1,1" group="1" kernel="1,1" output="128" pads_begin="0,0" pads_end="0,0" strides="1,1"/>
			<input>
				<port id="0">
					<dim>1</dim>
					<dim>241</dim>
					<dim>46</dim>
					<dim>54</dim>
				</port>
			</input>
			<output>
				<port id="3">
					<dim>1</dim>
					<dim>128</dim>
					<dim>46</dim>
					<dim>54</dim>
				</port>
			</output>
			<blobs>
				<weights offset="7054108" size="123392"/>
				<biases offset="7177500" size="512"/>
			</blobs>
		</layer>
		<layer id="179" name="Openpose/MConv_Stage4_L2_1_pointwise/Relu" precision="FP32" type="ReLU">
			<input>
				<port id="0">
					<dim>1</dim>
					<dim>128</dim>
					<dim>46</dim>
					<dim>54</dim>
				</port>
			</input>
			<output>
				<port id="1">
					<dim>1</dim>
					<dim>128</dim>
					<dim>46</dim>
					<dim>54</dim>
				</port>
			</output>
		</layer>
		<layer id="180" name="Openpose/MConv_Stage4_L2_2_depthwise/depthwise" precision="FP32" type="Convolution">
			<data auto_pad="same_upper" dilations="1,1" group="128" kernel="3,3" output="128" pads_begin="1,1" pads_end="1,1" strides="1,1"/>
			<input>
				<port id="0">
					<dim>1</dim>
					<dim>128</dim>
					<dim>46</dim>
					<dim>54</dim>
				</port>
			</input>
			<output>
				<port id="2">
					<dim>1</dim>
					<dim>128</dim>
					<dim>46</dim>
					<dim>54</dim>
				</port>
			</output>
			<blobs>
				<weights offset="7178012" size="4608"/>
			</blobs>
		</layer>
		<layer id="181" name="Openpose/MConv_Stage4_L2_2_pointwise/Conv2D" precision="FP32" type="Convolution">
			<data auto_pad="same_upper" dilations="1,1" group="1" kernel="1,1" output="128" pads_begin="0,0" pads_end="0,0" strides="1,1"/>
			<input>
				<port id="0">
					<dim>1</dim>
					<dim>128</dim>
					<dim>46</dim>
					<dim>54</dim>
				</port>
			</input>
			<output>
				<port id="3">
					<dim>1</dim>
					<dim>128</dim>
					<dim>46</dim>
					<dim>54</dim>
				</port>
			</output>
			<blobs>
				<weights offset="7182620" size="65536"/>
				<biases offset="7248156" size="512"/>
			</blobs>
		</layer>
		<layer id="182" name="Openpose/MConv_Stage4_L2_2_pointwise/Relu" precision="FP32" type="ReLU">
			<input>
				<port id="0">
					<dim>1</dim>
					<dim>128</dim>
					<dim>46</dim>
					<dim>54</dim>
				</port>
			</input>
			<output>
				<port id="1">
					<dim>1</dim>
					<dim>128</dim>
					<dim>46</dim>
					<dim>54</dim>
				</port>
			</output>
		</layer>
		<layer id="183" name="Openpose/MConv_Stage4_L2_3_depthwise/depthwise" precision="FP32" type="Convolution">
			<data auto_pad="same_upper" dilations="1,1" group="128" kernel="3,3" output="128" pads_begin="1,1" pads_end="1,1" strides="1,1"/>
			<input>
				<port id="0">
					<dim>1</dim>
					<dim>128</dim>
					<dim>46</dim>
					<dim>54</dim>
				</port>
			</input>
			<output>
				<port id="2">
					<dim>1</dim>
					<dim>128</dim>
					<dim>46</dim>
					<dim>54</dim>
				</port>
			</output>
			<blobs>
				<weights offset="7248668" size="4608"/>
			</blobs>
		</layer>
		<layer id="184" name="Openpose/MConv_Stage4_L2_3_pointwise/Conv2D" precision="FP32" type="Convolution">
			<data auto_pad="same_upper" dilations="1,1" group="1" kernel="1,1" output="128" pads_begin="0,0" pads_end="0,0" strides="1,1"/>
			<input>
				<port id="0">
					<dim>1</dim>
					<dim>128</dim>
					<dim>46</dim>
					<dim>54</dim>
				</port>
			</input>
			<output>
				<port id="3">
					<dim>1</dim>
					<dim>128</dim>
					<dim>46</dim>
					<dim>54</dim>
				</port>
			</output>
			<blobs>
				<weights offset="7253276" size="65536"/>
				<biases offset="7318812" size="512"/>
			</blobs>
		</layer>
		<layer id="185" name="Openpose/MConv_Stage4_L2_3_pointwise/Relu" precision="FP32" type="ReLU">
			<input>
				<port id="0">
					<dim>1</dim>
					<dim>128</dim>
					<dim>46</dim>
					<dim>54</dim>
				</port>
			</input>
			<output>
				<port id="1">
					<dim>1</dim>
					<dim>128</dim>
					<dim>46</dim>
					<dim>54</dim>
				</port>
			</output>
		</layer>
		<layer id="186" name="Openpose/MConv_Stage4_L2_4_depthwise/depthwise" precision="FP32" type="Convolution">
			<data auto_pad="same_upper" dilations="1,1" group="128" kernel="1,1" output="128" pads_begin="0,0" pads_end="0,0" strides="1,1"/>
			<input>
				<port id="0">
					<dim>1</dim>
					<dim>128</dim>
					<dim>46</dim>
					<dim>54</dim>
				</port>
			</input>
			<output>
				<port id="2">
					<dim>1</dim>
					<dim>128</dim>
					<dim>46</dim>
					<dim>54</dim>
				</port>
			</output>
			<blobs>
				<weights offset="7319324" size="512"/>
			</blobs>
		</layer>
		<layer id="187" name="Openpose/MConv_Stage4_L2_4_pointwise/Conv2D" precision="FP32" type="Convolution">
			<data auto_pad="same_upper" dilations="1,1" group="1" kernel="1,1" output="128" pads_begin="0,0" pads_end="0,0" strides="1,1"/>
			<input>
				<port id="0">
					<dim>1</dim>
					<dim>128</dim>
					<dim>46</dim>
					<dim>54</dim>
				</port>
			</input>
			<output>
				<port id="3">
					<dim>1</dim>
					<dim>128</dim>
					<dim>46</dim>
					<dim>54</dim>
				</port>
			</output>
			<blobs>
				<weights offset="7319836" size="65536"/>
				<biases offset="7385372" size="512"/>
			</blobs>
		</layer>
		<layer id="188" name="Openpose/MConv_Stage4_L2_4_pointwise/Relu" precision="FP32" type="ReLU">
			<input>
				<port id="0">
					<dim>1</dim>
					<dim>128</dim>
					<dim>46</dim>
					<dim>54</dim>
				</port>
			</input>
			<output>
				<port id="1">
					<dim>1</dim>
					<dim>128</dim>
					<dim>46</dim>
					<dim>54</dim>
				</port>
			</output>
		</layer>
		<layer id="189" name="Openpose/MConv_Stage4_L2_5_depthwise/depthwise" precision="FP32" type="Convolution">
			<data auto_pad="same_upper" dilations="1,1" group="128" kernel="1,1" output="128" pads_begin="0,0" pads_end="0,0" strides="1,1"/>
			<input>
				<port id="0">
					<dim>1</dim>
					<dim>128</dim>
					<dim>46</dim>
					<dim>54</dim>
				</port>
			</input>
			<output>
				<port id="2">
					<dim>1</dim>
					<dim>128</dim>
					<dim>46</dim>
					<dim>54</dim>
				</port>
			</output>
			<blobs>
				<weights offset="7385884" size="512"/>
			</blobs>
		</layer>
		<layer id="190" name="Openpose/MConv_Stage4_L2_5_pointwise/Conv2D" precision="FP32" type="Convolution">
			<data auto_pad="same_upper" dilations="1,1" group="1" kernel="1,1" output="19" pads_begin="0,0" pads_end="0,0" strides="1,1"/>
			<input>
				<port id="0">
					<dim>1</dim>
					<dim>128</dim>
					<dim>46</dim>
					<dim>54</dim>
				</port>
			</input>
			<output>
				<port id="3">
					<dim>1</dim>
					<dim>19</dim>
					<dim>46</dim>
					<dim>54</dim>
				</port>
			</output>
			<blobs>
				<weights offset="7386396" size="9728"/>
				<biases offset="7396124" size="76"/>
			</blobs>
		</layer>
		<layer id="191" name="Openpose/MConv_Stage5_concat" precision="FP32" type="Concat">
			<data axis="1"/>
			<input>
				<port id="0">
					<dim>1</dim>
					<dim>38</dim>
					<dim>46</dim>
					<dim>54</dim>
				</port>
				<port id="1">
					<dim>1</dim>
					<dim>19</dim>
					<dim>46</dim>
					<dim>54</dim>
				</port>
				<port id="2">
					<dim>1</dim>
					<dim>184</dim>
					<dim>46</dim>
					<dim>54</dim>
				</port>
			</input>
			<output>
				<port id="3">
					<dim>1</dim>
					<dim>241</dim>
					<dim>46</dim>
					<dim>54</dim>
				</port>
			</output>
		</layer>
		<layer id="192" name="Openpose/MConv_Stage5_L1_1_depthwise/depthwise" precision="FP32" type="Convolution">
			<data auto_pad="same_upper" dilations="1,1" group="241" kernel="3,3" output="241" pads_begin="1,1" pads_end="1,1" strides="1,1"/>
			<input>
				<port id="0">
					<dim>1</dim>
					<dim>241</dim>
					<dim>46</dim>
					<dim>54</dim>
				</port>
			</input>
			<output>
				<port id="2">
					<dim>1</dim>
					<dim>241</dim>
					<dim>46</dim>
					<dim>54</dim>
				</port>
			</output>
			<blobs>
				<weights offset="7396200" size="8676"/>
			</blobs>
		</layer>
		<layer id="193" name="Openpose/MConv_Stage5_L1_1_pointwise/Conv2D" precision="FP32" type="Convolution">
			<data auto_pad="same_upper" dilations="1,1" group="1" kernel="1,1" output="128" pads_begin="0,0" pads_end="0,0" strides="1,1"/>
			<input>
				<port id="0">
					<dim>1</dim>
					<dim>241</dim>
					<dim>46</dim>
					<dim>54</dim>
				</port>
			</input>
			<output>
				<port id="3">
					<dim>1</dim>
					<dim>128</dim>
					<dim>46</dim>
					<dim>54</dim>
				</port>
			</output>
			<blobs>
				<weights offset="7404876" size="123392"/>
				<biases offset="7528268" size="512"/>
			</blobs>
		</layer>
		<layer id="194" name="Openpose/MConv_Stage5_L1_1_pointwise/Relu" precision="FP32" type="ReLU">
			<input>
				<port id="0">
					<dim>1</dim>
					<dim>128</dim>
					<dim>46</dim>
					<dim>54</dim>
				</port>
			</input>
			<output>
				<port id="1">
					<dim>1</dim>
					<dim>128</dim>
					<dim>46</dim>
					<dim>54</dim>
				</port>
			</output>
		</layer>
		<layer id="195" name="Openpose/MConv_Stage5_L1_2_depthwise/depthwise" precision="FP32" type="Convolution">
			<data auto_pad="same_upper" dilations="1,1" group="128" kernel="3,3" output="128" pads_begin="1,1" pads_end="1,1" strides="1,1"/>
			<input>
				<port id="0">
					<dim>1</dim>
					<dim>128</dim>
					<dim>46</dim>
					<dim>54</dim>
				</port>
			</input>
			<output>
				<port id="2">
					<dim>1</dim>
					<dim>128</dim>
					<dim>46</dim>
					<dim>54</dim>
				</port>
			</output>
			<blobs>
				<weights offset="7528780" size="4608"/>
			</blobs>
		</layer>
		<layer id="196" name="Openpose/MConv_Stage5_L1_2_pointwise/Conv2D" precision="FP32" type="Convolution">
			<data auto_pad="same_upper" dilations="1,1" group="1" kernel="1,1" output="128" pads_begin="0,0" pads_end="0,0" strides="1,1"/>
			<input>
				<port id="0">
					<dim>1</dim>
					<dim>128</dim>
					<dim>46</dim>
					<dim>54</dim>
				</port>
			</input>
			<output>
				<port id="3">
					<dim>1</dim>
					<dim>128</dim>
					<dim>46</dim>
					<dim>54</dim>
				</port>
			</output>
			<blobs>
				<weights offset="7533388" size="65536"/>
				<biases offset="7598924" size="512"/>
			</blobs>
		</layer>
		<layer id="197" name="Openpose/MConv_Stage5_L1_2_pointwise/Relu" precision="FP32" type="ReLU">
			<input>
				<port id="0">
					<dim>1</dim>
					<dim>128</dim>
					<dim>46</dim>
					<dim>54</dim>
				</port>
			</input>
			<output>
				<port id="1">
					<dim>1</dim>
					<dim>128</dim>
					<dim>46</dim>
					<dim>54</dim>
				</port>
			</output>
		</layer>
		<layer id="198" name="Openpose/MConv_Stage5_L1_3_depthwise/depthwise" precision="FP32" type="Convolution">
			<data auto_pad="same_upper" dilations="1,1" group="128" kernel="3,3" output="128" pads_begin="1,1" pads_end="1,1" strides="1,1"/>
			<input>
				<port id="0">
					<dim>1</dim>
					<dim>128</dim>
					<dim>46</dim>
					<dim>54</dim>
				</port>
			</input>
			<output>
				<port id="2">
					<dim>1</dim>
					<dim>128</dim>
					<dim>46</dim>
					<dim>54</dim>
				</port>
			</output>
			<blobs>
				<weights offset="7599436" size="4608"/>
			</blobs>
		</layer>
		<layer id="199" name="Openpose/MConv_Stage5_L1_3_pointwise/Conv2D" precision="FP32" type="Convolution">
			<data auto_pad="same_upper" dilations="1,1" group="1" kernel="1,1" output="128" pads_begin="0,0" pads_end="0,0" strides="1,1"/>
			<input>
				<port id="0">
					<dim>1</dim>
					<dim>128</dim>
					<dim>46</dim>
					<dim>54</dim>
				</port>
			</input>
			<output>
				<port id="3">
					<dim>1</dim>
					<dim>128</dim>
					<dim>46</dim>
					<dim>54</dim>
				</port>
			</output>
			<blobs>
				<weights offset="7604044" size="65536"/>
				<biases offset="7669580" size="512"/>
			</blobs>
		</layer>
		<layer id="200" name="Openpose/MConv_Stage5_L1_3_pointwise/Relu" precision="FP32" type="ReLU">
			<input>
				<port id="0">
					<dim>1</dim>
					<dim>128</dim>
					<dim>46</dim>
					<dim>54</dim>
				</port>
			</input>
			<output>
				<port id="1">
					<dim>1</dim>
					<dim>128</dim>
					<dim>46</dim>
					<dim>54</dim>
				</port>
			</output>
		</layer>
		<layer id="201" name="Openpose/MConv_Stage5_L1_4_depthwise/depthwise" precision="FP32" type="Convolution">
			<data auto_pad="same_upper" dilations="1,1" group="128" kernel="1,1" output="128" pads_begin="0,0" pads_end="0,0" strides="1,1"/>
			<input>
				<port id="0">
					<dim>1</dim>
					<dim>128</dim>
					<dim>46</dim>
					<dim>54</dim>
				</port>
			</input>
			<output>
				<port id="2">
					<dim>1</dim>
					<dim>128</dim>
					<dim>46</dim>
					<dim>54</dim>
				</port>
			</output>
			<blobs>
				<weights offset="7670092" size="512"/>
			</blobs>
		</layer>
		<layer id="202" name="Openpose/MConv_Stage5_L1_4_pointwise/Conv2D" precision="FP32" type="Convolution">
			<data auto_pad="same_upper" dilations="1,1" group="1" kernel="1,1" output="128" pads_begin="0,0" pads_end="0,0" strides="1,1"/>
			<input>
				<port id="0">
					<dim>1</dim>
					<dim>128</dim>
					<dim>46</dim>
					<dim>54</dim>
				</port>
			</input>
			<output>
				<port id="3">
					<dim>1</dim>
					<dim>128</dim>
					<dim>46</dim>
					<dim>54</dim>
				</port>
			</output>
			<blobs>
				<weights offset="7670604" size="65536"/>
				<biases offset="7736140" size="512"/>
			</blobs>
		</layer>
		<layer id="203" name="Openpose/MConv_Stage5_L1_4_pointwise/Relu" precision="FP32" type="ReLU">
			<input>
				<port id="0">
					<dim>1</dim>
					<dim>128</dim>
					<dim>46</dim>
					<dim>54</dim>
				</port>
			</input>
			<output>
				<port id="1">
					<dim>1</dim>
					<dim>128</dim>
					<dim>46</dim>
					<dim>54</dim>
				</port>
			</output>
		</layer>
		<layer id="204" name="Openpose/MConv_Stage5_L1_5_depthwise/depthwise" precision="FP32" type="Convolution">
			<data auto_pad="same_upper" dilations="1,1" group="128" kernel="1,1" output="128" pads_begin="0,0" pads_end="0,0" strides="1,1"/>
			<input>
				<port id="0">
					<dim>1</dim>
					<dim>128</dim>
					<dim>46</dim>
					<dim>54</dim>
				</port>
			</input>
			<output>
				<port id="2">
					<dim>1</dim>
					<dim>128</dim>
					<dim>46</dim>
					<dim>54</dim>
				</port>
			</output>
			<blobs>
				<weights offset="7736652" size="512"/>
			</blobs>
		</layer>
		<layer id="205" name="Openpose/MConv_Stage5_L1_5_pointwise/Conv2D" precision="FP32" type="Convolution">
			<data auto_pad="same_upper" dilations="1,1" group="1" kernel="1,1" output="38" pads_begin="0,0" pads_end="0,0" strides="1,1"/>
			<input>
				<port id="0">
					<dim>1</dim>
					<dim>128</dim>
					<dim>46</dim>
					<dim>54</dim>
				</port>
			</input>
			<output>
				<port id="3">
					<dim>1</dim>
					<dim>38</dim>
					<dim>46</dim>
					<dim>54</dim>
				</port>
			</output>
			<blobs>
				<weights offset="7737164" size="19456"/>
				<biases offset="7756620" size="152"/>
			</blobs>
		</layer>
		<layer id="206" name="Openpose/MConv_Stage5_L2_1_depthwise/depthwise" precision="FP32" type="Convolution">
			<data auto_pad="same_upper" dilations="1,1" group="241" kernel="3,3" output="241" pads_begin="1,1" pads_end="1,1" strides="1,1"/>
			<input>
				<port id="0">
					<dim>1</dim>
					<dim>241</dim>
					<dim>46</dim>
					<dim>54</dim>
				</port>
			</input>
			<output>
				<port id="2">
					<dim>1</dim>
					<dim>241</dim>
					<dim>46</dim>
					<dim>54</dim>
				</port>
			</output>
			<blobs>
				<weights offset="7756772" size="8676"/>
			</blobs>
		</layer>
		<layer id="207" name="Openpose/MConv_Stage5_L2_1_pointwise/Conv2D" precision="FP32" type="Convolution">
			<data auto_pad="same_upper" dilations="1,1" group="1" kernel="1,1" output="128" pads_begin="0,0" pads_end="0,0" strides="1,1"/>
			<input>
				<port id="0">
					<dim>1</dim>
					<dim>241</dim>
					<dim>46</dim>
					<dim>54</dim>
				</port>
			</input>
			<output>
				<port id="3">
					<dim>1</dim>
					<dim>128</dim>
					<dim>46</dim>
					<dim>54</dim>
				</port>
			</output>
			<blobs>
				<weights offset="7765448" size="123392"/>
				<biases offset="7888840" size="512"/>
			</blobs>
		</layer>
		<layer id="208" name="Openpose/MConv_Stage5_L2_1_pointwise/Relu" precision="FP32" type="ReLU">
			<input>
				<port id="0">
					<dim>1</dim>
					<dim>128</dim>
					<dim>46</dim>
					<dim>54</dim>
				</port>
			</input>
			<output>
				<port id="1">
					<dim>1</dim>
					<dim>128</dim>
					<dim>46</dim>
					<dim>54</dim>
				</port>
			</output>
		</layer>
		<layer id="209" name="Openpose/MConv_Stage5_L2_2_depthwise/depthwise" precision="FP32" type="Convolution">
			<data auto_pad="same_upper" dilations="1,1" group="128" kernel="3,3" output="128" pads_begin="1,1" pads_end="1,1" strides="1,1"/>
			<input>
				<port id="0">
					<dim>1</dim>
					<dim>128</dim>
					<dim>46</dim>
					<dim>54</dim>
				</port>
			</input>
			<output>
				<port id="2">
					<dim>1</dim>
					<dim>128</dim>
					<dim>46</dim>
					<dim>54</dim>
				</port>
			</output>
			<blobs>
				<weights offset="7889352" size="4608"/>
			</blobs>
		</layer>
		<layer id="210" name="Openpose/MConv_Stage5_L2_2_pointwise/Conv2D" precision="FP32" type="Convolution">
			<data auto_pad="same_upper" dilations="1,1" group="1" kernel="1,1" output="128" pads_begin="0,0" pads_end="0,0" strides="1,1"/>
			<input>
				<port id="0">
					<dim>1</dim>
					<dim>128</dim>
					<dim>46</dim>
					<dim>54</dim>
				</port>
			</input>
			<output>
				<port id="3">
					<dim>1</dim>
					<dim>128</dim>
					<dim>46</dim>
					<dim>54</dim>
				</port>
			</output>
			<blobs>
				<weights offset="7893960" size="65536"/>
				<biases offset="7959496" size="512"/>
			</blobs>
		</layer>
		<layer id="211" name="Openpose/MConv_Stage5_L2_2_pointwise/Relu" precision="FP32" type="ReLU">
			<input>
				<port id="0">
					<dim>1</dim>
					<dim>128</dim>
					<dim>46</dim>
					<dim>54</dim>
				</port>
			</input>
			<output>
				<port id="1">
					<dim>1</dim>
					<dim>128</dim>
					<dim>46</dim>
					<dim>54</dim>
				</port>
			</output>
		</layer>
		<layer id="212" name="Openpose/MConv_Stage5_L2_3_depthwise/depthwise" precision="FP32" type="Convolution">
			<data auto_pad="same_upper" dilations="1,1" group="128" kernel="3,3" output="128" pads_begin="1,1" pads_end="1,1" strides="1,1"/>
			<input>
				<port id="0">
					<dim>1</dim>
					<dim>128</dim>
					<dim>46</dim>
					<dim>54</dim>
				</port>
			</input>
			<output>
				<port id="2">
					<dim>1</dim>
					<dim>128</dim>
					<dim>46</dim>
					<dim>54</dim>
				</port>
			</output>
			<blobs>
				<weights offset="7960008" size="4608"/>
			</blobs>
		</layer>
		<layer id="213" name="Openpose/MConv_Stage5_L2_3_pointwise/Conv2D" precision="FP32" type="Convolution">
			<data auto_pad="same_upper" dilations="1,1" group="1" kernel="1,1" output="128" pads_begin="0,0" pads_end="0,0" strides="1,1"/>
			<input>
				<port id="0">
					<dim>1</dim>
					<dim>128</dim>
					<dim>46</dim>
					<dim>54</dim>
				</port>
			</input>
			<output>
				<port id="3">
					<dim>1</dim>
					<dim>128</dim>
					<dim>46</dim>
					<dim>54</dim>
				</port>
			</output>
			<blobs>
				<weights offset="7964616" size="65536"/>
				<biases offset="8030152" size="512"/>
			</blobs>
		</layer>
		<layer id="214" name="Openpose/MConv_Stage5_L2_3_pointwise/Relu" precision="FP32" type="ReLU">
			<input>
				<port id="0">
					<dim>1</dim>
					<dim>128</dim>
					<dim>46</dim>
					<dim>54</dim>
				</port>
			</input>
			<output>
				<port id="1">
					<dim>1</dim>
					<dim>128</dim>
					<dim>46</dim>
					<dim>54</dim>
				</port>
			</output>
		</layer>
		<layer id="215" name="Openpose/MConv_Stage5_L2_4_depthwise/depthwise" precision="FP32" type="Convolution">
			<data auto_pad="same_upper" dilations="1,1" group="128" kernel="1,1" output="128" pads_begin="0,0" pads_end="0,0" strides="1,1"/>
			<input>
				<port id="0">
					<dim>1</dim>
					<dim>128</dim>
					<dim>46</dim>
					<dim>54</dim>
				</port>
			</input>
			<output>
				<port id="2">
					<dim>1</dim>
					<dim>128</dim>
					<dim>46</dim>
					<dim>54</dim>
				</port>
			</output>
			<blobs>
				<weights offset="8030664" size="512"/>
			</blobs>
		</layer>
		<layer id="216" name="Openpose/MConv_Stage5_L2_4_pointwise/Conv2D" precision="FP32" type="Convolution">
			<data auto_pad="same_upper" dilations="1,1" group="1" kernel="1,1" output="128" pads_begin="0,0" pads_end="0,0" strides="1,1"/>
			<input>
				<port id="0">
					<dim>1</dim>
					<dim>128</dim>
					<dim>46</dim>
					<dim>54</dim>
				</port>
			</input>
			<output>
				<port id="3">
					<dim>1</dim>
					<dim>128</dim>
					<dim>46</dim>
					<dim>54</dim>
				</port>
			</output>
			<blobs>
				<weights offset="8031176" size="65536"/>
				<biases offset="8096712" size="512"/>
			</blobs>
		</layer>
		<layer id="217" name="Openpose/MConv_Stage5_L2_4_pointwise/Relu" precision="FP32" type="ReLU">
			<input>
				<port id="0">
					<dim>1</dim>
					<dim>128</dim>
					<dim>46</dim>
					<dim>54</dim>
				</port>
			</input>
			<output>
				<port id="1">
					<dim>1</dim>
					<dim>128</dim>
					<dim>46</dim>
					<dim>54</dim>
				</port>
			</output>
		</layer>
		<layer id="218" name="Openpose/MConv_Stage5_L2_5_depthwise/depthwise" precision="FP32" type="Convolution">
			<data auto_pad="same_upper" dilations="1,1" group="128" kernel="1,1" output="128" pads_begin="0,0" pads_end="0,0" strides="1,1"/>
			<input>
				<port id="0">
					<dim>1</dim>
					<dim>128</dim>
					<dim>46</dim>
					<dim>54</dim>
				</port>
			</input>
			<output>
				<port id="2">
					<dim>1</dim>
					<dim>128</dim>
					<dim>46</dim>
					<dim>54</dim>
				</port>
			</output>
			<blobs>
				<weights offset="8097224" size="512"/>
			</blobs>
		</layer>
		<layer id="219" name="Openpose/MConv_Stage5_L2_5_pointwise/Conv2D" precision="FP32" type="Convolution">
			<data auto_pad="same_upper" dilations="1,1" group="1" kernel="1,1" output="19" pads_begin="0,0" pads_end="0,0" strides="1,1"/>
			<input>
				<port id="0">
					<dim>1</dim>
					<dim>128</dim>
					<dim>46</dim>
					<dim>54</dim>
				</port>
			</input>
			<output>
				<port id="3">
					<dim>1</dim>
					<dim>19</dim>
					<dim>46</dim>
					<dim>54</dim>
				</port>
			</output>
			<blobs>
				<weights offset="8097736" size="9728"/>
				<biases offset="8107464" size="76"/>
			</blobs>
		</layer>
		<layer id="220" name="Openpose/MConv_Stage6_concat" precision="FP32" type="Concat">
			<data axis="1"/>
			<input>
				<port id="0">
					<dim>1</dim>
					<dim>38</dim>
					<dim>46</dim>
					<dim>54</dim>
				</port>
				<port id="1">
					<dim>1</dim>
					<dim>19</dim>
					<dim>46</dim>
					<dim>54</dim>
				</port>
				<port id="2">
					<dim>1</dim>
					<dim>184</dim>
					<dim>46</dim>
					<dim>54</dim>
				</port>
			</input>
			<output>
				<port id="3">
					<dim>1</dim>
					<dim>241</dim>
					<dim>46</dim>
					<dim>54</dim>
				</port>
			</output>
		</layer>
		<layer id="221" name="Openpose/MConv_Stage6_L2_1_depthwise/depthwise" precision="FP32" type="Convolution">
			<data auto_pad="same_upper" dilations="1,1" group="241" kernel="3,3" output="241" pads_begin="1,1" pads_end="1,1" strides="1,1"/>
			<input>
				<port id="0">
					<dim>1</dim>
					<dim>241</dim>
					<dim>46</dim>
					<dim>54</dim>
				</port>
			</input>
			<output>
				<port id="2">
					<dim>1</dim>
					<dim>241</dim>
					<dim>46</dim>
					<dim>54</dim>
				</port>
			</output>
			<blobs>
				<weights offset="8107540" size="8676"/>
			</blobs>
		</layer>
		<layer id="222" name="Openpose/MConv_Stage6_L2_1_pointwise/Conv2D" precision="FP32" type="Convolution">
			<data auto_pad="same_upper" dilations="1,1" group="1" kernel="1,1" output="128" pads_begin="0,0" pads_end="0,0" strides="1,1"/>
			<input>
				<port id="0">
					<dim>1</dim>
					<dim>241</dim>
					<dim>46</dim>
					<dim>54</dim>
				</port>
			</input>
			<output>
				<port id="3">
					<dim>1</dim>
					<dim>128</dim>
					<dim>46</dim>
					<dim>54</dim>
				</port>
			</output>
			<blobs>
				<weights offset="8116216" size="123392"/>
				<biases offset="8239608" size="512"/>
			</blobs>
		</layer>
		<layer id="223" name="Openpose/MConv_Stage6_L2_1_pointwise/Relu" precision="FP32" type="ReLU">
			<input>
				<port id="0">
					<dim>1</dim>
					<dim>128</dim>
					<dim>46</dim>
					<dim>54</dim>
				</port>
			</input>
			<output>
				<port id="1">
					<dim>1</dim>
					<dim>128</dim>
					<dim>46</dim>
					<dim>54</dim>
				</port>
			</output>
		</layer>
		<layer id="224" name="Openpose/MConv_Stage6_L2_2_depthwise/depthwise" precision="FP32" type="Convolution">
			<data auto_pad="same_upper" dilations="1,1" group="128" kernel="3,3" output="128" pads_begin="1,1" pads_end="1,1" strides="1,1"/>
			<input>
				<port id="0">
					<dim>1</dim>
					<dim>128</dim>
					<dim>46</dim>
					<dim>54</dim>
				</port>
			</input>
			<output>
				<port id="2">
					<dim>1</dim>
					<dim>128</dim>
					<dim>46</dim>
					<dim>54</dim>
				</port>
			</output>
			<blobs>
				<weights offset="8240120" size="4608"/>
			</blobs>
		</layer>
		<layer id="225" name="Openpose/MConv_Stage6_L2_2_pointwise/Conv2D" precision="FP32" type="Convolution">
			<data auto_pad="same_upper" dilations="1,1" group="1" kernel="1,1" output="128" pads_begin="0,0" pads_end="0,0" strides="1,1"/>
			<input>
				<port id="0">
					<dim>1</dim>
					<dim>128</dim>
					<dim>46</dim>
					<dim>54</dim>
				</port>
			</input>
			<output>
				<port id="3">
					<dim>1</dim>
					<dim>128</dim>
					<dim>46</dim>
					<dim>54</dim>
				</port>
			</output>
			<blobs>
				<weights offset="8244728" size="65536"/>
				<biases offset="8310264" size="512"/>
			</blobs>
		</layer>
		<layer id="226" name="Openpose/MConv_Stage6_L2_2_pointwise/Relu" precision="FP32" type="ReLU">
			<input>
				<port id="0">
					<dim>1</dim>
					<dim>128</dim>
					<dim>46</dim>
					<dim>54</dim>
				</port>
			</input>
			<output>
				<port id="1">
					<dim>1</dim>
					<dim>128</dim>
					<dim>46</dim>
					<dim>54</dim>
				</port>
			</output>
		</layer>
		<layer id="227" name="Openpose/MConv_Stage6_L2_3_depthwise/depthwise" precision="FP32" type="Convolution">
			<data auto_pad="same_upper" dilations="1,1" group="128" kernel="3,3" output="128" pads_begin="1,1" pads_end="1,1" strides="1,1"/>
			<input>
				<port id="0">
					<dim>1</dim>
					<dim>128</dim>
					<dim>46</dim>
					<dim>54</dim>
				</port>
			</input>
			<output>
				<port id="2">
					<dim>1</dim>
					<dim>128</dim>
					<dim>46</dim>
					<dim>54</dim>
				</port>
			</output>
			<blobs>
				<weights offset="8310776" size="4608"/>
			</blobs>
		</layer>
		<layer id="228" name="Openpose/MConv_Stage6_L2_3_pointwise/Conv2D" precision="FP32" type="Convolution">
			<data auto_pad="same_upper" dilations="1,1" group="1" kernel="1,1" output="128" pads_begin="0,0" pads_end="0,0" strides="1,1"/>
			<input>
				<port id="0">
					<dim>1</dim>
					<dim>128</dim>
					<dim>46</dim>
					<dim>54</dim>
				</port>
			</input>
			<output>
				<port id="3">
					<dim>1</dim>
					<dim>128</dim>
					<dim>46</dim>
					<dim>54</dim>
				</port>
			</output>
			<blobs>
				<weights offset="8315384" size="65536"/>
				<biases offset="8380920" size="512"/>
			</blobs>
		</layer>
		<layer id="229" name="Openpose/MConv_Stage6_L2_3_pointwise/Relu" precision="FP32" type="ReLU">
			<input>
				<port id="0">
					<dim>1</dim>
					<dim>128</dim>
					<dim>46</dim>
					<dim>54</dim>
				</port>
			</input>
			<output>
				<port id="1">
					<dim>1</dim>
					<dim>128</dim>
					<dim>46</dim>
					<dim>54</dim>
				</port>
			</output>
		</layer>
		<layer id="230" name="Openpose/MConv_Stage6_L2_4_depthwise/depthwise" precision="FP32" type="Convolution">
			<data auto_pad="same_upper" dilations="1,1" group="128" kernel="1,1" output="128" pads_begin="0,0" pads_end="0,0" strides="1,1"/>
			<input>
				<port id="0">
					<dim>1</dim>
					<dim>128</dim>
					<dim>46</dim>
					<dim>54</dim>
				</port>
			</input>
			<output>
				<port id="2">
					<dim>1</dim>
					<dim>128</dim>
					<dim>46</dim>
					<dim>54</dim>
				</port>
			</output>
			<blobs>
				<weights offset="8381432" size="512"/>
			</blobs>
		</layer>
		<layer id="231" name="Openpose/MConv_Stage6_L2_4_pointwise/Conv2D" precision="FP32" type="Convolution">
			<data auto_pad="same_upper" dilations="1,1" group="1" kernel="1,1" output="128" pads_begin="0,0" pads_end="0,0" strides="1,1"/>
			<input>
				<port id="0">
					<dim>1</dim>
					<dim>128</dim>
					<dim>46</dim>
					<dim>54</dim>
				</port>
			</input>
			<output>
				<port id="3">
					<dim>1</dim>
					<dim>128</dim>
					<dim>46</dim>
					<dim>54</dim>
				</port>
			</output>
			<blobs>
				<weights offset="8381944" size="65536"/>
				<biases offset="8447480" size="512"/>
			</blobs>
		</layer>
		<layer id="232" name="Openpose/MConv_Stage6_L2_4_pointwise/Relu" precision="FP32" type="ReLU">
			<input>
				<port id="0">
					<dim>1</dim>
					<dim>128</dim>
					<dim>46</dim>
					<dim>54</dim>
				</port>
			</input>
			<output>
				<port id="1">
					<dim>1</dim>
					<dim>128</dim>
					<dim>46</dim>
					<dim>54</dim>
				</port>
			</output>
		</layer>
		<layer id="233" name="Openpose/MConv_Stage6_L2_5_depthwise/depthwise" precision="FP32" type="Convolution">
			<data auto_pad="same_upper" dilations="1,1" group="128" kernel="1,1" output="128" pads_begin="0,0" pads_end="0,0" strides="1,1"/>
			<input>
				<port id="0">
					<dim>1</dim>
					<dim>128</dim>
					<dim>46</dim>
					<dim>54</dim>
				</port>
			</input>
			<output>
				<port id="2">
					<dim>1</dim>
					<dim>128</dim>
					<dim>46</dim>
					<dim>54</dim>
				</port>
			</output>
			<blobs>
				<weights offset="8447992" size="512"/>
			</blobs>
		</layer>
		<layer id="234" name="Openpose/MConv_Stage6_L2_5_pointwise/Conv2D" precision="FP32" type="Convolution">
			<data auto_pad="same_upper" dilations="1,1" group="1" kernel="1,1" output="19" pads_begin="0,0" pads_end="0,0" strides="1,1"/>
			<input>
				<port id="0">
					<dim>1</dim>
					<dim>128</dim>
					<dim>46</dim>
					<dim>54</dim>
				</port>
			</input>
			<output>
				<port id="3">
					<dim>1</dim>
					<dim>19</dim>
					<dim>46</dim>
					<dim>54</dim>
				</port>
			</output>
			<blobs>
				<weights offset="8448504" size="9728"/>
				<biases offset="8458232" size="76"/>
			</blobs>
		</layer>
		<layer id="235" name="Openpose/MConv_Stage6_L1_1_depthwise/depthwise" precision="FP32" type="Convolution">
			<data auto_pad="same_upper" dilations="1,1" group="241" kernel="3,3" output="241" pads_begin="1,1" pads_end="1,1" strides="1,1"/>
			<input>
				<port id="0">
					<dim>1</dim>
					<dim>241</dim>
					<dim>46</dim>
					<dim>54</dim>
				</port>
			</input>
			<output>
				<port id="2">
					<dim>1</dim>
					<dim>241</dim>
					<dim>46</dim>
					<dim>54</dim>
				</port>
			</output>
			<blobs>
				<weights offset="8458308" size="8676"/>
			</blobs>
		</layer>
		<layer id="236" name="Openpose/MConv_Stage6_L1_1_pointwise/Conv2D" precision="FP32" type="Convolution">
			<data auto_pad="same_upper" dilations="1,1" group="1" kernel="1,1" output="128" pads_begin="0,0" pads_end="0,0" strides="1,1"/>
			<input>
				<port id="0">
					<dim>1</dim>
					<dim>241</dim>
					<dim>46</dim>
					<dim>54</dim>
				</port>
			</input>
			<output>
				<port id="3">
					<dim>1</dim>
					<dim>128</dim>
					<dim>46</dim>
					<dim>54</dim>
				</port>
			</output>
			<blobs>
				<weights offset="8466984" size="123392"/>
				<biases offset="8590376" size="512"/>
			</blobs>
		</layer>
		<layer id="237" name="Openpose/MConv_Stage6_L1_1_pointwise/Relu" precision="FP32" type="ReLU">
			<input>
				<port id="0">
					<dim>1</dim>
					<dim>128</dim>
					<dim>46</dim>
					<dim>54</dim>
				</port>
			</input>
			<output>
				<port id="1">
					<dim>1</dim>
					<dim>128</dim>
					<dim>46</dim>
					<dim>54</dim>
				</port>
			</output>
		</layer>
		<layer id="238" name="Openpose/MConv_Stage6_L1_2_depthwise/depthwise" precision="FP32" type="Convolution">
			<data auto_pad="same_upper" dilations="1,1" group="128" kernel="3,3" output="128" pads_begin="1,1" pads_end="1,1" strides="1,1"/>
			<input>
				<port id="0">
					<dim>1</dim>
					<dim>128</dim>
					<dim>46</dim>
					<dim>54</dim>
				</port>
			</input>
			<output>
				<port id="2">
					<dim>1</dim>
					<dim>128</dim>
					<dim>46</dim>
					<dim>54</dim>
				</port>
			</output>
			<blobs>
				<weights offset="8590888" size="4608"/>
			</blobs>
		</layer>
		<layer id="239" name="Openpose/MConv_Stage6_L1_2_pointwise/Conv2D" precision="FP32" type="Convolution">
			<data auto_pad="same_upper" dilations="1,1" group="1" kernel="1,1" output="128" pads_begin="0,0" pads_end="0,0" strides="1,1"/>
			<input>
				<port id="0">
					<dim>1</dim>
					<dim>128</dim>
					<dim>46</dim>
					<dim>54</dim>
				</port>
			</input>
			<output>
				<port id="3">
					<dim>1</dim>
					<dim>128</dim>
					<dim>46</dim>
					<dim>54</dim>
				</port>
			</output>
			<blobs>
				<weights offset="8595496" size="65536"/>
				<biases offset="8661032" size="512"/>
			</blobs>
		</layer>
		<layer id="240" name="Openpose/MConv_Stage6_L1_2_pointwise/Relu" precision="FP32" type="ReLU">
			<input>
				<port id="0">
					<dim>1</dim>
					<dim>128</dim>
					<dim>46</dim>
					<dim>54</dim>
				</port>
			</input>
			<output>
				<port id="1">
					<dim>1</dim>
					<dim>128</dim>
					<dim>46</dim>
					<dim>54</dim>
				</port>
			</output>
		</layer>
		<layer id="241" name="Openpose/MConv_Stage6_L1_3_depthwise/depthwise" precision="FP32" type="Convolution">
			<data auto_pad="same_upper" dilations="1,1" group="128" kernel="3,3" output="128" pads_begin="1,1" pads_end="1,1" strides="1,1"/>
			<input>
				<port id="0">
					<dim>1</dim>
					<dim>128</dim>
					<dim>46</dim>
					<dim>54</dim>
				</port>
			</input>
			<output>
				<port id="2">
					<dim>1</dim>
					<dim>128</dim>
					<dim>46</dim>
					<dim>54</dim>
				</port>
			</output>
			<blobs>
				<weights offset="8661544" size="4608"/>
			</blobs>
		</layer>
		<layer id="242" name="Openpose/MConv_Stage6_L1_3_pointwise/Conv2D" precision="FP32" type="Convolution">
			<data auto_pad="same_upper" dilations="1,1" group="1" kernel="1,1" output="128" pads_begin="0,0" pads_end="0,0" strides="1,1"/>
			<input>
				<port id="0">
					<dim>1</dim>
					<dim>128</dim>
					<dim>46</dim>
					<dim>54</dim>
				</port>
			</input>
			<output>
				<port id="3">
					<dim>1</dim>
					<dim>128</dim>
					<dim>46</dim>
					<dim>54</dim>
				</port>
			</output>
			<blobs>
				<weights offset="8666152" size="65536"/>
				<biases offset="8731688" size="512"/>
			</blobs>
		</layer>
		<layer id="243" name="Openpose/MConv_Stage6_L1_3_pointwise/Relu" precision="FP32" type="ReLU">
			<input>
				<port id="0">
					<dim>1</dim>
					<dim>128</dim>
					<dim>46</dim>
					<dim>54</dim>
				</port>
			</input>
			<output>
				<port id="1">
					<dim>1</dim>
					<dim>128</dim>
					<dim>46</dim>
					<dim>54</dim>
				</port>
			</output>
		</layer>
		<layer id="244" name="Openpose/MConv_Stage6_L1_4_depthwise/depthwise" precision="FP32" type="Convolution">
			<data auto_pad="same_upper" dilations="1,1" group="128" kernel="1,1" output="128" pads_begin="0,0" pads_end="0,0" strides="1,1"/>
			<input>
				<port id="0">
					<dim>1</dim>
					<dim>128</dim>
					<dim>46</dim>
					<dim>54</dim>
				</port>
			</input>
			<output>
				<port id="2">
					<dim>1</dim>
					<dim>128</dim>
					<dim>46</dim>
					<dim>54</dim>
				</port>
			</output>
			<blobs>
				<weights offset="8732200" size="512"/>
			</blobs>
		</layer>
		<layer id="245" name="Openpose/MConv_Stage6_L1_4_pointwise/Conv2D" precision="FP32" type="Convolution">
			<data auto_pad="same_upper" dilations="1,1" group="1" kernel="1,1" output="128" pads_begin="0,0" pads_end="0,0" strides="1,1"/>
			<input>
				<port id="0">
					<dim>1</dim>
					<dim>128</dim>
					<dim>46</dim>
					<dim>54</dim>
				</port>
			</input>
			<output>
				<port id="3">
					<dim>1</dim>
					<dim>128</dim>
					<dim>46</dim>
					<dim>54</dim>
				</port>
			</output>
			<blobs>
				<weights offset="8732712" size="65536"/>
				<biases offset="8798248" size="512"/>
			</blobs>
		</layer>
		<layer id="246" name="Openpose/MConv_Stage6_L1_4_pointwise/Relu" precision="FP32" type="ReLU">
			<input>
				<port id="0">
					<dim>1</dim>
					<dim>128</dim>
					<dim>46</dim>
					<dim>54</dim>
				</port>
			</input>
			<output>
				<port id="1">
					<dim>1</dim>
					<dim>128</dim>
					<dim>46</dim>
					<dim>54</dim>
				</port>
			</output>
		</layer>
		<layer id="247" name="Openpose/MConv_Stage6_L1_5_depthwise/depthwise" precision="FP32" type="Convolution">
			<data auto_pad="same_upper" dilations="1,1" group="128" kernel="1,1" output="128" pads_begin="0,0" pads_end="0,0" strides="1,1"/>
			<input>
				<port id="0">
					<dim>1</dim>
					<dim>128</dim>
					<dim>46</dim>
					<dim>54</dim>
				</port>
			</input>
			<output>
				<port id="2">
					<dim>1</dim>
					<dim>128</dim>
					<dim>46</dim>
					<dim>54</dim>
				</port>
			</output>
			<blobs>
				<weights offset="8798760" size="512"/>
			</blobs>
		</layer>
		<layer id="248" name="Openpose/MConv_Stage6_L1_5_pointwise/Conv2D" precision="FP32" type="Convolution">
			<data auto_pad="same_upper" dilations="1,1" group="1" kernel="1,1" output="38" pads_begin="0,0" pads_end="0,0" strides="1,1"/>
			<input>
				<port id="0">
					<dim>1</dim>
					<dim>128</dim>
					<dim>46</dim>
					<dim>54</dim>
				</port>
			</input>
			<output>
				<port id="3">
					<dim>1</dim>
					<dim>38</dim>
					<dim>46</dim>
					<dim>54</dim>
				</port>
			</output>
			<blobs>
				<weights offset="8799272" size="19456"/>
				<biases offset="8818728" size="152"/>
			</blobs>
		</layer>
		<layer id="249" name="Openpose/concat_stage7" precision="FP32" type="Concat">
			<data axis="1"/>
			<input>
				<port id="0">
					<dim>1</dim>
					<dim>19</dim>
					<dim>46</dim>
					<dim>54</dim>
				</port>
				<port id="1">
					<dim>1</dim>
					<dim>38</dim>
					<dim>46</dim>
					<dim>54</dim>
				</port>
			</input>
			<output>
				<port id="2">
					<dim>1</dim>
					<dim>57</dim>
					<dim>46</dim>
					<dim>54</dim>
				</port>
			</output>
		</layer>
	</layers>
	<edges>
		<edge from-layer="0" from-port="0" to-layer="1" to-port="0"/>
		<edge from-layer="1" from-port="3" to-layer="2" to-port="0"/>
		<edge from-layer="2" from-port="1" to-layer="3" to-port="0"/>
		<edge from-layer="3" from-port="3" to-layer="4" to-port="0"/>
		<edge from-layer="4" from-port="1" to-layer="5" to-port="0"/>
		<edge from-layer="5" from-port="3" to-layer="6" to-port="0"/>
		<edge from-layer="6" from-port="3" to-layer="7" to-port="0"/>
		<edge from-layer="7" from-port="1" to-layer="8" to-port="0"/>
		<edge from-layer="8" from-port="3" to-layer="9" to-port="0"/>
		<edge from-layer="9" from-port="1" to-layer="10" to-port="0"/>
		<edge from-layer="10" from-port="3" to-layer="11" to-port="0"/>
		<edge from-layer="11" from-port="3" to-layer="12" to-port="0"/>
		<edge from-layer="12" from-port="1" to-layer="13" to-port="0"/>
		<edge from-layer="13" from-port="3" to-layer="14" to-port="0"/>
		<edge from-layer="14" from-port="1" to-layer="15" to-port="0"/>
		<edge from-layer="15" from-port="3" to-layer="16" to-port="0"/>
		<edge from-layer="10" from-port="3" to-layer="16" to-port="1"/>
		<edge from-layer="16" from-port="2" to-layer="17" to-port="0"/>
		<edge from-layer="17" from-port="3" to-layer="18" to-port="0"/>
		<edge from-layer="18" from-port="1" to-layer="19" to-port="0"/>
		<edge from-layer="19" from-port="3" to-layer="20" to-port="0"/>
		<edge from-layer="20" from-port="1" to-layer="21" to-port="0"/>
		<edge from-layer="21" from-port="3" to-layer="22" to-port="0"/>
		<edge from-layer="22" from-port="3" to-layer="23" to-port="0"/>
		<edge from-layer="23" from-port="1" to-layer="24" to-port="0"/>
		<edge from-layer="24" from-port="3" to-layer="25" to-port="0"/>
		<edge from-layer="25" from-port="1" to-layer="26" to-port="0"/>
		<edge from-layer="26" from-port="3" to-layer="27" to-port="0"/>
		<edge from-layer="21" from-port="3" to-layer="27" to-port="1"/>
		<edge from-layer="27" from-port="2" to-layer="28" to-port="0"/>
		<edge from-layer="28" from-port="3" to-layer="29" to-port="0"/>
		<edge from-layer="29" from-port="1" to-layer="30" to-port="0"/>
		<edge from-layer="30" from-port="3" to-layer="31" to-port="0"/>
		<edge from-layer="31" from-port="1" to-layer="32" to-port="0"/>
		<edge from-layer="32" from-port="3" to-layer="33" to-port="0"/>
		<edge from-layer="27" from-port="2" to-layer="33" to-port="1"/>
		<edge from-layer="33" from-port="2" to-layer="34" to-port="0"/>
		<edge from-layer="34" from-port="3" to-layer="35" to-port="0"/>
		<edge from-layer="35" from-port="1" to-layer="36" to-port="0"/>
		<edge from-layer="36" from-port="3" to-layer="37" to-port="0"/>
		<edge from-layer="37" from-port="1" to-layer="38" to-port="0"/>
		<edge from-layer="38" from-port="3" to-layer="39" to-port="0"/>
		<edge from-layer="39" from-port="3" to-layer="40" to-port="0"/>
		<edge from-layer="40" from-port="1" to-layer="41" to-port="0"/>
		<edge from-layer="41" from-port="3" to-layer="42" to-port="0"/>
		<edge from-layer="42" from-port="1" to-layer="43" to-port="0"/>
		<edge from-layer="43" from-port="3" to-layer="44" to-port="0"/>
		<edge from-layer="38" from-port="3" to-layer="44" to-port="1"/>
		<edge from-layer="44" from-port="2" to-layer="45" to-port="0"/>
		<edge from-layer="45" from-port="3" to-layer="46" to-port="0"/>
		<edge from-layer="46" from-port="1" to-layer="47" to-port="0"/>
		<edge from-layer="47" from-port="3" to-layer="48" to-port="0"/>
		<edge from-layer="48" from-port="1" to-layer="49" to-port="0"/>
		<edge from-layer="49" from-port="3" to-layer="50" to-port="0"/>
		<edge from-layer="44" from-port="2" to-layer="50" to-port="1"/>
		<edge from-layer="50" from-port="2" to-layer="51" to-port="0"/>
		<edge from-layer="51" from-port="3" to-layer="52" to-port="0"/>
		<edge from-layer="52" from-port="1" to-layer="53" to-port="0"/>
		<edge from-layer="53" from-port="3" to-layer="54" to-port="0"/>
		<edge from-layer="54" from-port="1" to-layer="55" to-port="0"/>
		<edge from-layer="55" from-port="3" to-layer="56" to-port="0"/>
		<edge from-layer="50" from-port="2" to-layer="56" to-port="1"/>
		<edge from-layer="56" from-port="2" to-layer="57" to-port="0"/>
		<edge from-layer="57" from-port="3" to-layer="58" to-port="0"/>
		<edge from-layer="58" from-port="1" to-layer="59" to-port="0"/>
		<edge from-layer="59" from-port="3" to-layer="60" to-port="0"/>
		<edge from-layer="60" from-port="1" to-layer="61" to-port="0"/>
		<edge from-layer="61" from-port="3" to-layer="62" to-port="0"/>
		<edge from-layer="62" from-port="3" to-layer="63" to-port="0"/>
		<edge from-layer="63" from-port="1" to-layer="64" to-port="0"/>
		<edge from-layer="64" from-port="3" to-layer="65" to-port="0"/>
		<edge from-layer="65" from-port="1" to-layer="66" to-port="0"/>
		<edge from-layer="66" from-port="3" to-layer="67" to-port="0"/>
		<edge from-layer="61" from-port="3" to-layer="67" to-port="1"/>
		<edge from-layer="67" from-port="2" to-layer="68" to-port="0"/>
		<edge from-layer="68" from-port="3" to-layer="69" to-port="0"/>
		<edge from-layer="69" from-port="1" to-layer="70" to-port="0"/>
		<edge from-layer="70" from-port="3" to-layer="71" to-port="0"/>
		<edge from-layer="71" from-port="1" to-layer="72" to-port="0"/>
		<edge from-layer="72" from-port="3" to-layer="73" to-port="0"/>
		<edge from-layer="67" from-port="2" to-layer="73" to-port="1"/>
		<edge from-layer="73" from-port="2" to-layer="74" to-port="0"/>
		<edge from-layer="33" from-port="2" to-layer="75" to-port="0"/>
		<edge from-layer="74" from-port="1" to-layer="75" to-port="1"/>
		<edge from-layer="75" from-port="2" to-layer="76" to-port="0"/>
		<edge from-layer="76" from-port="2" to-layer="77" to-port="0"/>
		<edge from-layer="77" from-port="3" to-layer="78" to-port="0"/>
		<edge from-layer="78" from-port="1" to-layer="79" to-port="0"/>
		<edge from-layer="79" from-port="2" to-layer="80" to-port="0"/>
		<edge from-layer="80" from-port="3" to-layer="81" to-port="0"/>
		<edge from-layer="81" from-port="1" to-layer="82" to-port="0"/>
		<edge from-layer="82" from-port="2" to-layer="83" to-port="0"/>
		<edge from-layer="83" from-port="3" to-layer="84" to-port="0"/>
		<edge from-layer="84" from-port="1" to-layer="85" to-port="0"/>
		<edge from-layer="85" from-port="2" to-layer="86" to-port="0"/>
		<edge from-layer="86" from-port="3" to-layer="87" to-port="0"/>
		<edge from-layer="87" from-port="1" to-layer="88" to-port="0"/>
		<edge from-layer="88" from-port="2" to-layer="89" to-port="0"/>
		<edge from-layer="75" from-port="2" to-layer="90" to-port="0"/>
		<edge from-layer="90" from-port="2" to-layer="91" to-port="0"/>
		<edge from-layer="91" from-port="3" to-layer="92" to-port="0"/>
		<edge from-layer="92" from-port="1" to-layer="93" to-port="0"/>
		<edge from-layer="93" from-port="2" to-layer="94" to-port="0"/>
		<edge from-layer="94" from-port="3" to-layer="95" to-port="0"/>
		<edge from-layer="95" from-port="1" to-layer="96" to-port="0"/>
		<edge from-layer="96" from-port="2" to-layer="97" to-port="0"/>
		<edge from-layer="97" from-port="3" to-layer="98" to-port="0"/>
		<edge from-layer="98" from-port="1" to-layer="99" to-port="0"/>
		<edge from-layer="99" from-port="2" to-layer="100" to-port="0"/>
		<edge from-layer="100" from-port="3" to-layer="101" to-port="0"/>
		<edge from-layer="101" from-port="1" to-layer="102" to-port="0"/>
		<edge from-layer="102" from-port="2" to-layer="103" to-port="0"/>
		<edge from-layer="89" from-port="3" to-layer="104" to-port="0"/>
		<edge from-layer="103" from-port="3" to-layer="104" to-port="1"/>
		<edge from-layer="75" from-port="2" to-layer="104" to-port="2"/>
		<edge from-layer="104" from-port="3" to-layer="105" to-port="0"/>
		<edge from-layer="105" from-port="2" to-layer="106" to-port="0"/>
		<edge from-layer="106" from-port="3" to-layer="107" to-port="0"/>
		<edge from-layer="107" from-port="1" to-layer="108" to-port="0"/>
		<edge from-layer="108" from-port="2" to-layer="109" to-port="0"/>
		<edge from-layer="109" from-port="3" to-layer="110" to-port="0"/>
		<edge from-layer="110" from-port="1" to-layer="111" to-port="0"/>
		<edge from-layer="111" from-port="2" to-layer="112" to-port="0"/>
		<edge from-layer="112" from-port="3" to-layer="113" to-port="0"/>
		<edge from-layer="113" from-port="1" to-layer="114" to-port="0"/>
		<edge from-layer="114" from-port="2" to-layer="115" to-port="0"/>
		<edge from-layer="115" from-port="3" to-layer="116" to-port="0"/>
		<edge from-layer="116" from-port="1" to-layer="117" to-port="0"/>
		<edge from-layer="117" from-port="2" to-layer="118" to-port="0"/>
		<edge from-layer="104" from-port="3" to-layer="119" to-port="0"/>
		<edge from-layer="119" from-port="2" to-layer="120" to-port="0"/>
		<edge from-layer="120" from-port="3" to-layer="121" to-port="0"/>
		<edge from-layer="121" from-port="1" to-layer="122" to-port="0"/>
		<edge from-layer="122" from-port="2" to-layer="123" to-port="0"/>
		<edge from-layer="123" from-port="3" to-layer="124" to-port="0"/>
		<edge from-layer="124" from-port="1" to-layer="125" to-port="0"/>
		<edge from-layer="125" from-port="2" to-layer="126" to-port="0"/>
		<edge from-layer="126" from-port="3" to-layer="127" to-port="0"/>
		<edge from-layer="127" from-port="1" to-layer="128" to-port="0"/>
		<edge from-layer="128" from-port="2" to-layer="129" to-port="0"/>
		<edge from-layer="129" from-port="3" to-layer="130" to-port="0"/>
		<edge from-layer="130" from-port="1" to-layer="131" to-port="0"/>
		<edge from-layer="131" from-port="2" to-layer="132" to-port="0"/>
		<edge from-layer="118" from-port="3" to-layer="133" to-port="0"/>
		<edge from-layer="132" from-port="3" to-layer="133" to-port="1"/>
		<edge from-layer="75" from-port="2" to-layer="133" to-port="2"/>
		<edge from-layer="133" from-port="3" to-layer="134" to-port="0"/>
		<edge from-layer="134" from-port="2" to-layer="135" to-port="0"/>
		<edge from-layer="135" from-port="3" to-layer="136" to-port="0"/>
		<edge from-layer="136" from-port="1" to-layer="137" to-port="0"/>
		<edge from-layer="137" from-port="2" to-layer="138" to-port="0"/>
		<edge from-layer="138" from-port="3" to-layer="139" to-port="0"/>
		<edge from-layer="139" from-port="1" to-layer="140" to-port="0"/>
		<edge from-layer="140" from-port="2" to-layer="141" to-port="0"/>
		<edge from-layer="141" from-port="3" to-layer="142" to-port="0"/>
		<edge from-layer="142" from-port="1" to-layer="143" to-port="0"/>
		<edge from-layer="143" from-port="2" to-layer="144" to-port="0"/>
		<edge from-layer="144" from-port="3" to-layer="145" to-port="0"/>
		<edge from-layer="145" from-port="1" to-layer="146" to-port="0"/>
		<edge from-layer="146" from-port="2" to-layer="147" to-port="0"/>
		<edge from-layer="133" from-port="3" to-layer="148" to-port="0"/>
		<edge from-layer="148" from-port="2" to-layer="149" to-port="0"/>
		<edge from-layer="149" from-port="3" to-layer="150" to-port="0"/>
		<edge from-layer="150" from-port="1" to-layer="151" to-port="0"/>
		<edge from-layer="151" from-port="2" to-layer="152" to-port="0"/>
		<edge from-layer="152" from-port="3" to-layer="153" to-port="0"/>
		<edge from-layer="153" from-port="1" to-layer="154" to-port="0"/>
		<edge from-layer="154" from-port="2" to-layer="155" to-port="0"/>
		<edge from-layer="155" from-port="3" to-layer="156" to-port="0"/>
		<edge from-layer="156" from-port="1" to-layer="157" to-port="0"/>
		<edge from-layer="157" from-port="2" to-layer="158" to-port="0"/>
		<edge from-layer="158" from-port="3" to-layer="159" to-port="0"/>
		<edge from-layer="159" from-port="1" to-layer="160" to-port="0"/>
		<edge from-layer="160" from-port="2" to-layer="161" to-port="0"/>
		<edge from-layer="147" from-port="3" to-layer="162" to-port="0"/>
		<edge from-layer="161" from-port="3" to-layer="162" to-port="1"/>
		<edge from-layer="75" from-port="2" to-layer="162" to-port="2"/>
		<edge from-layer="162" from-port="3" to-layer="163" to-port="0"/>
		<edge from-layer="163" from-port="2" to-layer="164" to-port="0"/>
		<edge from-layer="164" from-port="3" to-layer="165" to-port="0"/>
		<edge from-layer="165" from-port="1" to-layer="166" to-port="0"/>
		<edge from-layer="166" from-port="2" to-layer="167" to-port="0"/>
		<edge from-layer="167" from-port="3" to-layer="168" to-port="0"/>
		<edge from-layer="168" from-port="1" to-layer="169" to-port="0"/>
		<edge from-layer="169" from-port="2" to-layer="170" to-port="0"/>
		<edge from-layer="170" from-port="3" to-layer="171" to-port="0"/>
		<edge from-layer="171" from-port="1" to-layer="172" to-port="0"/>
		<edge from-layer="172" from-port="2" to-layer="173" to-port="0"/>
		<edge from-layer="173" from-port="3" to-layer="174" to-port="0"/>
		<edge from-layer="174" from-port="1" to-layer="175" to-port="0"/>
		<edge from-layer="175" from-port="2" to-layer="176" to-port="0"/>
		<edge from-layer="162" from-port="3" to-layer="177" to-port="0"/>
		<edge from-layer="177" from-port="2" to-layer="178" to-port="0"/>
		<edge from-layer="178" from-port="3" to-layer="179" to-port="0"/>
		<edge from-layer="179" from-port="1" to-layer="180" to-port="0"/>
		<edge from-layer="180" from-port="2" to-layer="181" to-port="0"/>
		<edge from-layer="181" from-port="3" to-layer="182" to-port="0"/>
		<edge from-layer="182" from-port="1" to-layer="183" to-port="0"/>
		<edge from-layer="183" from-port="2" to-layer="184" to-port="0"/>
		<edge from-layer="184" from-port="3" to-layer="185" to-port="0"/>
		<edge from-layer="185" from-port="1" to-layer="186" to-port="0"/>
		<edge from-layer="186" from-port="2" to-layer="187" to-port="0"/>
		<edge from-layer="187" from-port="3" to-layer="188" to-port="0"/>
		<edge from-layer="188" from-port="1" to-layer="189" to-port="0"/>
		<edge from-layer="189" from-port="2" to-layer="190" to-port="0"/>
		<edge from-layer="176" from-port="3" to-layer="191" to-port="0"/>
		<edge from-layer="190" from-port="3" to-layer="191" to-port="1"/>
		<edge from-layer="75" from-port="2" to-layer="191" to-port="2"/>
		<edge from-layer="191" from-port="3" to-layer="192" to-port="0"/>
		<edge from-layer="192" from-port="2" to-layer="193" to-port="0"/>
		<edge from-layer="193" from-port="3" to-layer="194" to-port="0"/>
		<edge from-layer="194" from-port="1" to-layer="195" to-port="0"/>
		<edge from-layer="195" from-port="2" to-layer="196" to-port="0"/>
		<edge from-layer="196" from-port="3" to-layer="197" to-port="0"/>
		<edge from-layer="197" from-port="1" to-layer="198" to-port="0"/>
		<edge from-layer="198" from-port="2" to-layer="199" to-port="0"/>
		<edge from-layer="199" from-port="3" to-layer="200" to-port="0"/>
		<edge from-layer="200" from-port="1" to-layer="201" to-port="0"/>
		<edge from-layer="201" from-port="2" to-layer="202" to-port="0"/>
		<edge from-layer="202" from-port="3" to-layer="203" to-port="0"/>
		<edge from-layer="203" from-port="1" to-layer="204" to-port="0"/>
		<edge from-layer="204" from-port="2" to-layer="205" to-port="0"/>
		<edge from-layer="191" from-port="3" to-layer="206" to-port="0"/>
		<edge from-layer="206" from-port="2" to-layer="207" to-port="0"/>
		<edge from-layer="207" from-port="3" to-layer="208" to-port="0"/>
		<edge from-layer="208" from-port="1" to-layer="209" to-port="0"/>
		<edge from-layer="209" from-port="2" to-layer="210" to-port="0"/>
		<edge from-layer="210" from-port="3" to-layer="211" to-port="0"/>
		<edge from-layer="211" from-port="1" to-layer="212" to-port="0"/>
		<edge from-layer="212" from-port="2" to-layer="213" to-port="0"/>
		<edge from-layer="213" from-port="3" to-layer="214" to-port="0"/>
		<edge from-layer="214" from-port="1" to-layer="215" to-port="0"/>
		<edge from-layer="215" from-port="2" to-layer="216" to-port="0"/>
		<edge from-layer="216" from-port="3" to-layer="217" to-port="0"/>
		<edge from-layer="217" from-port="1" to-layer="218" to-port="0"/>
		<edge from-layer="218" from-port="2" to-layer="219" to-port="0"/>
		<edge from-layer="205" from-port="3" to-layer="220" to-port="0"/>
		<edge from-layer="219" from-port="3" to-layer="220" to-port="1"/>
		<edge from-layer="75" from-port="2" to-layer="220" to-port="2"/>
		<edge from-layer="220" from-port="3" to-layer="221" to-port="0"/>
		<edge from-layer="221" from-port="2" to-layer="222" to-port="0"/>
		<edge from-layer="222" from-port="3" to-layer="223" to-port="0"/>
		<edge from-layer="223" from-port="1" to-layer="224" to-port="0"/>
		<edge from-layer="224" from-port="2" to-layer="225" to-port="0"/>
		<edge from-layer="225" from-port="3" to-layer="226" to-port="0"/>
		<edge from-layer="226" from-port="1" to-layer="227" to-port="0"/>
		<edge from-layer="227" from-port="2" to-layer="228" to-port="0"/>
		<edge from-layer="228" from-port="3" to-layer="229" to-port="0"/>
		<edge from-layer="229" from-port="1" to-layer="230" to-port="0"/>
		<edge from-layer="230" from-port="2" to-layer="231" to-port="0"/>
		<edge from-layer="231" from-port="3" to-layer="232" to-port="0"/>
		<edge from-layer="232" from-port="1" to-layer="233" to-port="0"/>
		<edge from-layer="233" from-port="2" to-layer="234" to-port="0"/>
		<edge from-layer="220" from-port="3" to-layer="235" to-port="0"/>
		<edge from-layer="235" from-port="2" to-layer="236" to-port="0"/>
		<edge from-layer="236" from-port="3" to-layer="237" to-port="0"/>
		<edge from-layer="237" from-port="1" to-layer="238" to-port="0"/>
		<edge from-layer="238" from-port="2" to-layer="239" to-port="0"/>
		<edge from-layer="239" from-port="3" to-layer="240" to-port="0"/>
		<edge from-layer="240" from-port="1" to-layer="241" to-port="0"/>
		<edge from-layer="241" from-port="2" to-layer="242" to-port="0"/>
		<edge from-layer="242" from-port="3" to-layer="243" to-port="0"/>
		<edge from-layer="243" from-port="1" to-layer="244" to-port="0"/>
		<edge from-layer="244" from-port="2" to-layer="245" to-port="0"/>
		<edge from-layer="245" from-port="3" to-layer="246" to-port="0"/>
		<edge from-layer="246" from-port="1" to-layer="247" to-port="0"/>
		<edge from-layer="247" from-port="2" to-layer="248" to-port="0"/>
		<edge from-layer="234" from-port="3" to-layer="249" to-port="0"/>
		<edge from-layer="248" from-port="3" to-layer="249" to-port="1"/>
	</edges>
	<meta_data>
		<MO_version value="2019.1.0-341-gc9b66a2"/>
		<cli_parameters>
			<data_type value="FP32"/>
			<disable_fusing value="False"/>
			<disable_gfusing value="False"/>
			<disable_nhwc_to_nchw value="False"/>
			<disable_resnet_optimization value="False"/>
			<enable_concat_optimization value="False"/>
			<extensions value="DIR"/>
			<framework value="tf"/>
			<generate_deprecated_IR_V2 value="False"/>
			<input_model value="DIR/frozen-model.pb"/>
			<input_model_is_text value="False"/>
			<input_shape value="[1,368,432,3]"/>
			<keep_shape_ops value="False"/>
			<log_level value="ERROR"/>
			<mean_scale_values value="{}"/>
			<mean_values value="()"/>
			<move_to_preprocess value="False"/>
			<output_dir value="DIR"/>
			<placeholder_shapes value="[  1 368 432   3]"/>
			<reverse_input_channels value="False"/>
			<scale_values value="()"/>
			<silent value="False"/>
			<version value="False"/>
			<unset unset_cli_parameters="batch, finegrain_fusing, freeze_placeholder_with_value, input, input_checkpoint, input_meta_graph, model_name, output, saved_model_dir, saved_model_tags, scale, tensorboard_logdir, tensorflow_custom_layer_libraries, tensorflow_custom_operations_config_update, tensorflow_object_detection_api_pipeline_config, tensorflow_operation_patterns, tensorflow_subgraph_patterns, tensorflow_use_custom_operations_config"/>
		</cli_parameters>
	</meta_data>
</net>
